{"format": "layers-model", "generatedBy": "keras v2.11.0", "convertedBy": "TensorFlow.js Converter v4.1.0", "modelTopology": {"keras_version": "2.11.0", "backend": "tensorflow", "model_config": {"class_name": "Functional", "config": {"name": "encoder", "layers": [{"class_name": "InputLayer", "config": {"batch_input_shape": [null, 224, 224, 3], "dtype": "float32", "sparse": false, "ragged": false, "name": "input_20"}, "name": "input_20", "inbound_nodes": []}, {"class_name": "Conv2D", "config": {"name": "conv2d_1786", "trainable": false, "dtype": "float32", "filters": 32, "kernel_size": [3, 3], "strides": [2, 2], "padding": "valid", "data_format": "channels_last", "dilation_rate": [1, 1], "groups": 1, "activation": "linear", "use_bias": false, "kernel_initializer": {"class_name": "GlorotUniform", "config": {"seed": null}}, "bias_initializer": {"class_name": "Zeros", "config": {}}, "kernel_regularizer": null, "bias_regularizer": null, "activity_regularizer": null, "kernel_constraint": null, "bias_constraint": null}, "name": "conv2d_1786", "inbound_nodes": [[["input_20", 0, 0, {}]]]}, {"class_name": "BatchNormalization", "config": {"name": "batch_normalization_1805", "trainable": false, "dtype": "float32", "axis": [3], "momentum": 0.99, "epsilon": 0.001, "center": true, "scale": false, "beta_initializer": {"class_name": "Zeros", "config": {}}, "gamma_initializer": {"class_name": "Ones", "config": {}}, "moving_mean_initializer": {"class_name": "Zeros", "config": {}}, "moving_variance_initializer": {"class_name": "Ones", "config": {}}, "beta_regularizer": null, "gamma_regularizer": null, "beta_constraint": null, "gamma_constraint": null}, "name": "batch_normalization_1805", "inbound_nodes": [[["conv2d_1786", 0, 0, {}]]]}, {"class_name": "Activation", "config": {"name": "activation_1786", "trainable": false, "dtype": "float32", "activation": "relu"}, "name": "activation_1786", "inbound_nodes": [[["batch_normalization_1805", 0, 0, {}]]]}, {"class_name": "Conv2D", "config": {"name": "conv2d_1787", "trainable": false, "dtype": "float32", "filters": 32, "kernel_size": [3, 3], "strides": [1, 1], "padding": "valid", "data_format": "channels_last", "dilation_rate": [1, 1], "groups": 1, "activation": "linear", "use_bias": false, "kernel_initializer": {"class_name": "GlorotUniform", "config": {"seed": null}}, "bias_initializer": {"class_name": "Zeros", "config": {}}, "kernel_regularizer": null, "bias_regularizer": null, "activity_regularizer": null, "kernel_constraint": null, "bias_constraint": null}, "name": "conv2d_1787", "inbound_nodes": [[["activation_1786", 0, 0, {}]]]}, {"class_name": "BatchNormalization", "config": {"name": "batch_normalization_1806", "trainable": false, "dtype": "float32", "axis": [3], "momentum": 0.99, "epsilon": 0.001, "center": true, "scale": false, "beta_initializer": {"class_name": "Zeros", "config": {}}, "gamma_initializer": {"class_name": "Ones", "config": {}}, "moving_mean_initializer": {"class_name": "Zeros", "config": {}}, "moving_variance_initializer": {"class_name": "Ones", "config": {}}, "beta_regularizer": null, "gamma_regularizer": null, "beta_constraint": null, "gamma_constraint": null}, "name": "batch_normalization_1806", "inbound_nodes": [[["conv2d_1787", 0, 0, {}]]]}, {"class_name": "Activation", "config": {"name": "activation_1787", "trainable": false, "dtype": "float32", "activation": "relu"}, "name": "activation_1787", "inbound_nodes": [[["batch_normalization_1806", 0, 0, {}]]]}, {"class_name": "Conv2D", "config": {"name": "conv2d_1788", "trainable": false, "dtype": "float32", "filters": 64, "kernel_size": [3, 3], "strides": [1, 1], "padding": "same", "data_format": "channels_last", "dilation_rate": [1, 1], "groups": 1, "activation": "linear", "use_bias": false, "kernel_initializer": {"class_name": "GlorotUniform", "config": {"seed": null}}, "bias_initializer": {"class_name": "Zeros", "config": {}}, "kernel_regularizer": null, "bias_regularizer": null, "activity_regularizer": null, "kernel_constraint": null, "bias_constraint": null}, "name": "conv2d_1788", "inbound_nodes": [[["activation_1787", 0, 0, {}]]]}, {"class_name": "BatchNormalization", "config": {"name": "batch_normalization_1807", "trainable": false, "dtype": "float32", "axis": [3], "momentum": 0.99, "epsilon": 0.001, "center": true, "scale": false, "beta_initializer": {"class_name": "Zeros", "config": {}}, "gamma_initializer": {"class_name": "Ones", "config": {}}, "moving_mean_initializer": {"class_name": "Zeros", "config": {}}, "moving_variance_initializer": {"class_name": "Ones", "config": {}}, "beta_regularizer": null, "gamma_regularizer": null, "beta_constraint": null, "gamma_constraint": null}, "name": "batch_normalization_1807", "inbound_nodes": [[["conv2d_1788", 0, 0, {}]]]}, {"class_name": "Activation", "config": {"name": "activation_1788", "trainable": false, "dtype": "float32", "activation": "relu"}, "name": "activation_1788", "inbound_nodes": [[["batch_normalization_1807", 0, 0, {}]]]}, {"class_name": "MaxPooling2D", "config": {"name": "max_pooling2d_76", "trainable": false, "dtype": "float32", "pool_size": [3, 3], "padding": "valid", "strides": [2, 2], "data_format": "channels_last"}, "name": "max_pooling2d_76", "inbound_nodes": [[["activation_1788", 0, 0, {}]]]}, {"class_name": "Conv2D", "config": {"name": "conv2d_1789", "trainable": false, "dtype": "float32", "filters": 80, "kernel_size": [1, 1], "strides": [1, 1], "padding": "valid", "data_format": "channels_last", "dilation_rate": [1, 1], "groups": 1, "activation": "linear", "use_bias": false, "kernel_initializer": {"class_name": "GlorotUniform", "config": {"seed": null}}, "bias_initializer": {"class_name": "Zeros", "config": {}}, "kernel_regularizer": null, "bias_regularizer": null, "activity_regularizer": null, "kernel_constraint": null, "bias_constraint": null}, "name": "conv2d_1789", "inbound_nodes": [[["max_pooling2d_76", 0, 0, {}]]]}, {"class_name": "BatchNormalization", "config": {"name": "batch_normalization_1808", "trainable": false, "dtype": "float32", "axis": [3], "momentum": 0.99, "epsilon": 0.001, "center": true, "scale": false, "beta_initializer": {"class_name": "Zeros", "config": {}}, "gamma_initializer": {"class_name": "Ones", "config": {}}, "moving_mean_initializer": {"class_name": "Zeros", "config": {}}, "moving_variance_initializer": {"class_name": "Ones", "config": {}}, "beta_regularizer": null, "gamma_regularizer": null, "beta_constraint": null, "gamma_constraint": null}, "name": "batch_normalization_1808", "inbound_nodes": [[["conv2d_1789", 0, 0, {}]]]}, {"class_name": "Activation", "config": {"name": "activation_1789", "trainable": false, "dtype": "float32", "activation": "relu"}, "name": "activation_1789", "inbound_nodes": [[["batch_normalization_1808", 0, 0, {}]]]}, {"class_name": "Conv2D", "config": {"name": "conv2d_1790", "trainable": false, "dtype": "float32", "filters": 192, "kernel_size": [3, 3], "strides": [1, 1], "padding": "valid", "data_format": "channels_last", "dilation_rate": [1, 1], "groups": 1, "activation": "linear", "use_bias": false, "kernel_initializer": {"class_name": "GlorotUniform", "config": {"seed": null}}, "bias_initializer": {"class_name": "Zeros", "config": {}}, "kernel_regularizer": null, "bias_regularizer": null, "activity_regularizer": null, "kernel_constraint": null, "bias_constraint": null}, "name": "conv2d_1790", "inbound_nodes": [[["activation_1789", 0, 0, {}]]]}, {"class_name": "BatchNormalization", "config": {"name": "batch_normalization_1809", "trainable": false, "dtype": "float32", "axis": [3], "momentum": 0.99, "epsilon": 0.001, "center": true, "scale": false, "beta_initializer": {"class_name": "Zeros", "config": {}}, "gamma_initializer": {"class_name": "Ones", "config": {}}, "moving_mean_initializer": {"class_name": "Zeros", "config": {}}, "moving_variance_initializer": {"class_name": "Ones", "config": {}}, "beta_regularizer": null, "gamma_regularizer": null, "beta_constraint": null, "gamma_constraint": null}, "name": "batch_normalization_1809", "inbound_nodes": [[["conv2d_1790", 0, 0, {}]]]}, {"class_name": "Activation", "config": {"name": "activation_1790", "trainable": false, "dtype": "float32", "activation": "relu"}, "name": "activation_1790", "inbound_nodes": [[["batch_normalization_1809", 0, 0, {}]]]}, {"class_name": "MaxPooling2D", "config": {"name": "max_pooling2d_77", "trainable": false, "dtype": "float32", "pool_size": [3, 3], "padding": "valid", "strides": [2, 2], "data_format": "channels_last"}, "name": "max_pooling2d_77", "inbound_nodes": [[["activation_1790", 0, 0, {}]]]}, {"class_name": "Conv2D", "config": {"name": "conv2d_1794", "trainable": false, "dtype": "float32", "filters": 64, "kernel_size": [1, 1], "strides": [1, 1], "padding": "same", "data_format": "channels_last", "dilation_rate": [1, 1], "groups": 1, "activation": "linear", "use_bias": false, "kernel_initializer": {"class_name": "GlorotUniform", "config": {"seed": null}}, "bias_initializer": {"class_name": "Zeros", "config": {}}, "kernel_regularizer": null, "bias_regularizer": null, "activity_regularizer": null, "kernel_constraint": null, "bias_constraint": null}, "name": "conv2d_1794", "inbound_nodes": [[["max_pooling2d_77", 0, 0, {}]]]}, {"class_name": "BatchNormalization", "config": {"name": "batch_normalization_1813", "trainable": false, "dtype": "float32", "axis": [3], "momentum": 0.99, "epsilon": 0.001, "center": true, "scale": false, "beta_initializer": {"class_name": "Zeros", "config": {}}, "gamma_initializer": {"class_name": "Ones", "config": {}}, "moving_mean_initializer": {"class_name": "Zeros", "config": {}}, "moving_variance_initializer": {"class_name": "Ones", "config": {}}, "beta_regularizer": null, "gamma_regularizer": null, "beta_constraint": null, "gamma_constraint": null}, "name": "batch_normalization_1813", "inbound_nodes": [[["conv2d_1794", 0, 0, {}]]]}, {"class_name": "Activation", "config": {"name": "activation_1794", "trainable": false, "dtype": "float32", "activation": "relu"}, "name": "activation_1794", "inbound_nodes": [[["batch_normalization_1813", 0, 0, {}]]]}, {"class_name": "Conv2D", "config": {"name": "conv2d_1792", "trainable": false, "dtype": "float32", "filters": 48, "kernel_size": [1, 1], "strides": [1, 1], "padding": "same", "data_format": "channels_last", "dilation_rate": [1, 1], "groups": 1, "activation": "linear", "use_bias": false, "kernel_initializer": {"class_name": "GlorotUniform", "config": {"seed": null}}, "bias_initializer": {"class_name": "Zeros", "config": {}}, "kernel_regularizer": null, "bias_regularizer": null, "activity_regularizer": null, "kernel_constraint": null, "bias_constraint": null}, "name": "conv2d_1792", "inbound_nodes": [[["max_pooling2d_77", 0, 0, {}]]]}, {"class_name": "Conv2D", "config": {"name": "conv2d_1795", "trainable": false, "dtype": "float32", "filters": 96, "kernel_size": [3, 3], "strides": [1, 1], "padding": "same", "data_format": "channels_last", "dilation_rate": [1, 1], "groups": 1, "activation": "linear", "use_bias": false, "kernel_initializer": {"class_name": "GlorotUniform", "config": {"seed": null}}, "bias_initializer": {"class_name": "Zeros", "config": {}}, "kernel_regularizer": null, "bias_regularizer": null, "activity_regularizer": null, "kernel_constraint": null, "bias_constraint": null}, "name": "conv2d_1795", "inbound_nodes": [[["activation_1794", 0, 0, {}]]]}, {"class_name": "BatchNormalization", "config": {"name": "batch_normalization_1811", "trainable": false, "dtype": "float32", "axis": [3], "momentum": 0.99, "epsilon": 0.001, "center": true, "scale": false, "beta_initializer": {"class_name": "Zeros", "config": {}}, "gamma_initializer": {"class_name": "Ones", "config": {}}, "moving_mean_initializer": {"class_name": "Zeros", "config": {}}, "moving_variance_initializer": {"class_name": "Ones", "config": {}}, "beta_regularizer": null, "gamma_regularizer": null, "beta_constraint": null, "gamma_constraint": null}, "name": "batch_normalization_1811", "inbound_nodes": [[["conv2d_1792", 0, 0, {}]]]}, {"class_name": "BatchNormalization", "config": {"name": "batch_normalization_1814", "trainable": false, "dtype": "float32", "axis": [3], "momentum": 0.99, "epsilon": 0.001, "center": true, "scale": false, "beta_initializer": {"class_name": "Zeros", "config": {}}, "gamma_initializer": {"class_name": "Ones", "config": {}}, "moving_mean_initializer": {"class_name": "Zeros", "config": {}}, "moving_variance_initializer": {"class_name": "Ones", "config": {}}, "beta_regularizer": null, "gamma_regularizer": null, "beta_constraint": null, "gamma_constraint": null}, "name": "batch_normalization_1814", "inbound_nodes": [[["conv2d_1795", 0, 0, {}]]]}, {"class_name": "Activation", "config": {"name": "activation_1792", "trainable": false, "dtype": "float32", "activation": "relu"}, "name": "activation_1792", "inbound_nodes": [[["batch_normalization_1811", 0, 0, {}]]]}, {"class_name": "Activation", "config": {"name": "activation_1795", "trainable": false, "dtype": "float32", "activation": "relu"}, "name": "activation_1795", "inbound_nodes": [[["batch_normalization_1814", 0, 0, {}]]]}, {"class_name": "AveragePooling2D", "config": {"name": "average_pooling2d_171", "trainable": false, "dtype": "float32", "pool_size": [3, 3], "padding": "same", "strides": [1, 1], "data_format": "channels_last"}, "name": "average_pooling2d_171", "inbound_nodes": [[["max_pooling2d_77", 0, 0, {}]]]}, {"class_name": "Conv2D", "config": {"name": "conv2d_1791", "trainable": false, "dtype": "float32", "filters": 64, "kernel_size": [1, 1], "strides": [1, 1], "padding": "same", "data_format": "channels_last", "dilation_rate": [1, 1], "groups": 1, "activation": "linear", "use_bias": false, "kernel_initializer": {"class_name": "GlorotUniform", "config": {"seed": null}}, "bias_initializer": {"class_name": "Zeros", "config": {}}, "kernel_regularizer": null, "bias_regularizer": null, "activity_regularizer": null, "kernel_constraint": null, "bias_constraint": null}, "name": "conv2d_1791", "inbound_nodes": [[["max_pooling2d_77", 0, 0, {}]]]}, {"class_name": "Conv2D", "config": {"name": "conv2d_1793", "trainable": false, "dtype": "float32", "filters": 64, "kernel_size": [5, 5], "strides": [1, 1], "padding": "same", "data_format": "channels_last", "dilation_rate": [1, 1], "groups": 1, "activation": "linear", "use_bias": false, "kernel_initializer": {"class_name": "GlorotUniform", "config": {"seed": null}}, "bias_initializer": {"class_name": "Zeros", "config": {}}, "kernel_regularizer": null, "bias_regularizer": null, "activity_regularizer": null, "kernel_constraint": null, "bias_constraint": null}, "name": "conv2d_1793", "inbound_nodes": [[["activation_1792", 0, 0, {}]]]}, {"class_name": "Conv2D", "config": {"name": "conv2d_1796", "trainable": false, "dtype": "float32", "filters": 96, "kernel_size": [3, 3], "strides": [1, 1], "padding": "same", "data_format": "channels_last", "dilation_rate": [1, 1], "groups": 1, "activation": "linear", "use_bias": false, "kernel_initializer": {"class_name": "GlorotUniform", "config": {"seed": null}}, "bias_initializer": {"class_name": "Zeros", "config": {}}, "kernel_regularizer": null, "bias_regularizer": null, "activity_regularizer": null, "kernel_constraint": null, "bias_constraint": null}, "name": "conv2d_1796", "inbound_nodes": [[["activation_1795", 0, 0, {}]]]}, {"class_name": "Conv2D", "config": {"name": "conv2d_1797", "trainable": false, "dtype": "float32", "filters": 32, "kernel_size": [1, 1], "strides": [1, 1], "padding": "same", "data_format": "channels_last", "dilation_rate": [1, 1], "groups": 1, "activation": "linear", "use_bias": false, "kernel_initializer": {"class_name": "GlorotUniform", "config": {"seed": null}}, "bias_initializer": {"class_name": "Zeros", "config": {}}, "kernel_regularizer": null, "bias_regularizer": null, "activity_regularizer": null, "kernel_constraint": null, "bias_constraint": null}, "name": "conv2d_1797", "inbound_nodes": [[["average_pooling2d_171", 0, 0, {}]]]}, {"class_name": "BatchNormalization", "config": {"name": "batch_normalization_1810", "trainable": false, "dtype": "float32", "axis": [3], "momentum": 0.99, "epsilon": 0.001, "center": true, "scale": false, "beta_initializer": {"class_name": "Zeros", "config": {}}, "gamma_initializer": {"class_name": "Ones", "config": {}}, "moving_mean_initializer": {"class_name": "Zeros", "config": {}}, "moving_variance_initializer": {"class_name": "Ones", "config": {}}, "beta_regularizer": null, "gamma_regularizer": null, "beta_constraint": null, "gamma_constraint": null}, "name": "batch_normalization_1810", "inbound_nodes": [[["conv2d_1791", 0, 0, {}]]]}, {"class_name": "BatchNormalization", "config": {"name": "batch_normalization_1812", "trainable": false, "dtype": "float32", "axis": [3], "momentum": 0.99, "epsilon": 0.001, "center": true, "scale": false, "beta_initializer": {"class_name": "Zeros", "config": {}}, "gamma_initializer": {"class_name": "Ones", "config": {}}, "moving_mean_initializer": {"class_name": "Zeros", "config": {}}, "moving_variance_initializer": {"class_name": "Ones", "config": {}}, "beta_regularizer": null, "gamma_regularizer": null, "beta_constraint": null, "gamma_constraint": null}, "name": "batch_normalization_1812", "inbound_nodes": [[["conv2d_1793", 0, 0, {}]]]}, {"class_name": "BatchNormalization", "config": {"name": "batch_normalization_1815", "trainable": false, "dtype": "float32", "axis": [3], "momentum": 0.99, "epsilon": 0.001, "center": true, "scale": false, "beta_initializer": {"class_name": "Zeros", "config": {}}, "gamma_initializer": {"class_name": "Ones", "config": {}}, "moving_mean_initializer": {"class_name": "Zeros", "config": {}}, "moving_variance_initializer": {"class_name": "Ones", "config": {}}, "beta_regularizer": null, "gamma_regularizer": null, "beta_constraint": null, "gamma_constraint": null}, "name": "batch_normalization_1815", "inbound_nodes": [[["conv2d_1796", 0, 0, {}]]]}, {"class_name": "BatchNormalization", "config": {"name": "batch_normalization_1816", "trainable": false, "dtype": "float32", "axis": [3], "momentum": 0.99, "epsilon": 0.001, "center": true, "scale": false, "beta_initializer": {"class_name": "Zeros", "config": {}}, "gamma_initializer": {"class_name": "Ones", "config": {}}, "moving_mean_initializer": {"class_name": "Zeros", "config": {}}, "moving_variance_initializer": {"class_name": "Ones", "config": {}}, "beta_regularizer": null, "gamma_regularizer": null, "beta_constraint": null, "gamma_constraint": null}, "name": "batch_normalization_1816", "inbound_nodes": [[["conv2d_1797", 0, 0, {}]]]}, {"class_name": "Activation", "config": {"name": "activation_1791", "trainable": false, "dtype": "float32", "activation": "relu"}, "name": "activation_1791", "inbound_nodes": [[["batch_normalization_1810", 0, 0, {}]]]}, {"class_name": "Activation", "config": {"name": "activation_1793", "trainable": false, "dtype": "float32", "activation": "relu"}, "name": "activation_1793", "inbound_nodes": [[["batch_normalization_1812", 0, 0, {}]]]}, {"class_name": "Activation", "config": {"name": "activation_1796", "trainable": false, "dtype": "float32", "activation": "relu"}, "name": "activation_1796", "inbound_nodes": [[["batch_normalization_1815", 0, 0, {}]]]}, {"class_name": "Activation", "config": {"name": "activation_1797", "trainable": false, "dtype": "float32", "activation": "relu"}, "name": "activation_1797", "inbound_nodes": [[["batch_normalization_1816", 0, 0, {}]]]}, {"class_name": "Concatenate", "config": {"name": "mixed0", "trainable": false, "dtype": "float32", "axis": 3}, "name": "mixed0", "inbound_nodes": [[["activation_1791", 0, 0, {}], ["activation_1793", 0, 0, {}], ["activation_1796", 0, 0, {}], ["activation_1797", 0, 0, {}]]]}, {"class_name": "Conv2D", "config": {"name": "conv2d_1801", "trainable": false, "dtype": "float32", "filters": 64, "kernel_size": [1, 1], "strides": [1, 1], "padding": "same", "data_format": "channels_last", "dilation_rate": [1, 1], "groups": 1, "activation": "linear", "use_bias": false, "kernel_initializer": {"class_name": "GlorotUniform", "config": {"seed": null}}, "bias_initializer": {"class_name": "Zeros", "config": {}}, "kernel_regularizer": null, "bias_regularizer": null, "activity_regularizer": null, "kernel_constraint": null, "bias_constraint": null}, "name": "conv2d_1801", "inbound_nodes": [[["mixed0", 0, 0, {}]]]}, {"class_name": "BatchNormalization", "config": {"name": "batch_normalization_1820", "trainable": false, "dtype": "float32", "axis": [3], "momentum": 0.99, "epsilon": 0.001, "center": true, "scale": false, "beta_initializer": {"class_name": "Zeros", "config": {}}, "gamma_initializer": {"class_name": "Ones", "config": {}}, "moving_mean_initializer": {"class_name": "Zeros", "config": {}}, "moving_variance_initializer": {"class_name": "Ones", "config": {}}, "beta_regularizer": null, "gamma_regularizer": null, "beta_constraint": null, "gamma_constraint": null}, "name": "batch_normalization_1820", "inbound_nodes": [[["conv2d_1801", 0, 0, {}]]]}, {"class_name": "Activation", "config": {"name": "activation_1801", "trainable": false, "dtype": "float32", "activation": "relu"}, "name": "activation_1801", "inbound_nodes": [[["batch_normalization_1820", 0, 0, {}]]]}, {"class_name": "Conv2D", "config": {"name": "conv2d_1799", "trainable": false, "dtype": "float32", "filters": 48, "kernel_size": [1, 1], "strides": [1, 1], "padding": "same", "data_format": "channels_last", "dilation_rate": [1, 1], "groups": 1, "activation": "linear", "use_bias": false, "kernel_initializer": {"class_name": "GlorotUniform", "config": {"seed": null}}, "bias_initializer": {"class_name": "Zeros", "config": {}}, "kernel_regularizer": null, "bias_regularizer": null, "activity_regularizer": null, "kernel_constraint": null, "bias_constraint": null}, "name": "conv2d_1799", "inbound_nodes": [[["mixed0", 0, 0, {}]]]}, {"class_name": "Conv2D", "config": {"name": "conv2d_1802", "trainable": false, "dtype": "float32", "filters": 96, "kernel_size": [3, 3], "strides": [1, 1], "padding": "same", "data_format": "channels_last", "dilation_rate": [1, 1], "groups": 1, "activation": "linear", "use_bias": false, "kernel_initializer": {"class_name": "GlorotUniform", "config": {"seed": null}}, "bias_initializer": {"class_name": "Zeros", "config": {}}, "kernel_regularizer": null, "bias_regularizer": null, "activity_regularizer": null, "kernel_constraint": null, "bias_constraint": null}, "name": "conv2d_1802", "inbound_nodes": [[["activation_1801", 0, 0, {}]]]}, {"class_name": "BatchNormalization", "config": {"name": "batch_normalization_1818", "trainable": false, "dtype": "float32", "axis": [3], "momentum": 0.99, "epsilon": 0.001, "center": true, "scale": false, "beta_initializer": {"class_name": "Zeros", "config": {}}, "gamma_initializer": {"class_name": "Ones", "config": {}}, "moving_mean_initializer": {"class_name": "Zeros", "config": {}}, "moving_variance_initializer": {"class_name": "Ones", "config": {}}, "beta_regularizer": null, "gamma_regularizer": null, "beta_constraint": null, "gamma_constraint": null}, "name": "batch_normalization_1818", "inbound_nodes": [[["conv2d_1799", 0, 0, {}]]]}, {"class_name": "BatchNormalization", "config": {"name": "batch_normalization_1821", "trainable": false, "dtype": "float32", "axis": [3], "momentum": 0.99, "epsilon": 0.001, "center": true, "scale": false, "beta_initializer": {"class_name": "Zeros", "config": {}}, "gamma_initializer": {"class_name": "Ones", "config": {}}, "moving_mean_initializer": {"class_name": "Zeros", "config": {}}, "moving_variance_initializer": {"class_name": "Ones", "config": {}}, "beta_regularizer": null, "gamma_regularizer": null, "beta_constraint": null, "gamma_constraint": null}, "name": "batch_normalization_1821", "inbound_nodes": [[["conv2d_1802", 0, 0, {}]]]}, {"class_name": "Activation", "config": {"name": "activation_1799", "trainable": false, "dtype": "float32", "activation": "relu"}, "name": "activation_1799", "inbound_nodes": [[["batch_normalization_1818", 0, 0, {}]]]}, {"class_name": "Activation", "config": {"name": "activation_1802", "trainable": false, "dtype": "float32", "activation": "relu"}, "name": "activation_1802", "inbound_nodes": [[["batch_normalization_1821", 0, 0, {}]]]}, {"class_name": "AveragePooling2D", "config": {"name": "average_pooling2d_172", "trainable": false, "dtype": "float32", "pool_size": [3, 3], "padding": "same", "strides": [1, 1], "data_format": "channels_last"}, "name": "average_pooling2d_172", "inbound_nodes": [[["mixed0", 0, 0, {}]]]}, {"class_name": "Conv2D", "config": {"name": "conv2d_1798", "trainable": false, "dtype": "float32", "filters": 64, "kernel_size": [1, 1], "strides": [1, 1], "padding": "same", "data_format": "channels_last", "dilation_rate": [1, 1], "groups": 1, "activation": "linear", "use_bias": false, "kernel_initializer": {"class_name": "GlorotUniform", "config": {"seed": null}}, "bias_initializer": {"class_name": "Zeros", "config": {}}, "kernel_regularizer": null, "bias_regularizer": null, "activity_regularizer": null, "kernel_constraint": null, "bias_constraint": null}, "name": "conv2d_1798", "inbound_nodes": [[["mixed0", 0, 0, {}]]]}, {"class_name": "Conv2D", "config": {"name": "conv2d_1800", "trainable": false, "dtype": "float32", "filters": 64, "kernel_size": [5, 5], "strides": [1, 1], "padding": "same", "data_format": "channels_last", "dilation_rate": [1, 1], "groups": 1, "activation": "linear", "use_bias": false, "kernel_initializer": {"class_name": "GlorotUniform", "config": {"seed": null}}, "bias_initializer": {"class_name": "Zeros", "config": {}}, "kernel_regularizer": null, "bias_regularizer": null, "activity_regularizer": null, "kernel_constraint": null, "bias_constraint": null}, "name": "conv2d_1800", "inbound_nodes": [[["activation_1799", 0, 0, {}]]]}, {"class_name": "Conv2D", "config": {"name": "conv2d_1803", "trainable": false, "dtype": "float32", "filters": 96, "kernel_size": [3, 3], "strides": [1, 1], "padding": "same", "data_format": "channels_last", "dilation_rate": [1, 1], "groups": 1, "activation": "linear", "use_bias": false, "kernel_initializer": {"class_name": "GlorotUniform", "config": {"seed": null}}, "bias_initializer": {"class_name": "Zeros", "config": {}}, "kernel_regularizer": null, "bias_regularizer": null, "activity_regularizer": null, "kernel_constraint": null, "bias_constraint": null}, "name": "conv2d_1803", "inbound_nodes": [[["activation_1802", 0, 0, {}]]]}, {"class_name": "Conv2D", "config": {"name": "conv2d_1804", "trainable": false, "dtype": "float32", "filters": 64, "kernel_size": [1, 1], "strides": [1, 1], "padding": "same", "data_format": "channels_last", "dilation_rate": [1, 1], "groups": 1, "activation": "linear", "use_bias": false, "kernel_initializer": {"class_name": "GlorotUniform", "config": {"seed": null}}, "bias_initializer": {"class_name": "Zeros", "config": {}}, "kernel_regularizer": null, "bias_regularizer": null, "activity_regularizer": null, "kernel_constraint": null, "bias_constraint": null}, "name": "conv2d_1804", "inbound_nodes": [[["average_pooling2d_172", 0, 0, {}]]]}, {"class_name": "BatchNormalization", "config": {"name": "batch_normalization_1817", "trainable": false, "dtype": "float32", "axis": [3], "momentum": 0.99, "epsilon": 0.001, "center": true, "scale": false, "beta_initializer": {"class_name": "Zeros", "config": {}}, "gamma_initializer": {"class_name": "Ones", "config": {}}, "moving_mean_initializer": {"class_name": "Zeros", "config": {}}, "moving_variance_initializer": {"class_name": "Ones", "config": {}}, "beta_regularizer": null, "gamma_regularizer": null, "beta_constraint": null, "gamma_constraint": null}, "name": "batch_normalization_1817", "inbound_nodes": [[["conv2d_1798", 0, 0, {}]]]}, {"class_name": "BatchNormalization", "config": {"name": "batch_normalization_1819", "trainable": false, "dtype": "float32", "axis": [3], "momentum": 0.99, "epsilon": 0.001, "center": true, "scale": false, "beta_initializer": {"class_name": "Zeros", "config": {}}, "gamma_initializer": {"class_name": "Ones", "config": {}}, "moving_mean_initializer": {"class_name": "Zeros", "config": {}}, "moving_variance_initializer": {"class_name": "Ones", "config": {}}, "beta_regularizer": null, "gamma_regularizer": null, "beta_constraint": null, "gamma_constraint": null}, "name": "batch_normalization_1819", "inbound_nodes": [[["conv2d_1800", 0, 0, {}]]]}, {"class_name": "BatchNormalization", "config": {"name": "batch_normalization_1822", "trainable": false, "dtype": "float32", "axis": [3], "momentum": 0.99, "epsilon": 0.001, "center": true, "scale": false, "beta_initializer": {"class_name": "Zeros", "config": {}}, "gamma_initializer": {"class_name": "Ones", "config": {}}, "moving_mean_initializer": {"class_name": "Zeros", "config": {}}, "moving_variance_initializer": {"class_name": "Ones", "config": {}}, "beta_regularizer": null, "gamma_regularizer": null, "beta_constraint": null, "gamma_constraint": null}, "name": "batch_normalization_1822", "inbound_nodes": [[["conv2d_1803", 0, 0, {}]]]}, {"class_name": "BatchNormalization", "config": {"name": "batch_normalization_1823", "trainable": false, "dtype": "float32", "axis": [3], "momentum": 0.99, "epsilon": 0.001, "center": true, "scale": false, "beta_initializer": {"class_name": "Zeros", "config": {}}, "gamma_initializer": {"class_name": "Ones", "config": {}}, "moving_mean_initializer": {"class_name": "Zeros", "config": {}}, "moving_variance_initializer": {"class_name": "Ones", "config": {}}, "beta_regularizer": null, "gamma_regularizer": null, "beta_constraint": null, "gamma_constraint": null}, "name": "batch_normalization_1823", "inbound_nodes": [[["conv2d_1804", 0, 0, {}]]]}, {"class_name": "Activation", "config": {"name": "activation_1798", "trainable": false, "dtype": "float32", "activation": "relu"}, "name": "activation_1798", "inbound_nodes": [[["batch_normalization_1817", 0, 0, {}]]]}, {"class_name": "Activation", "config": {"name": "activation_1800", "trainable": false, "dtype": "float32", "activation": "relu"}, "name": "activation_1800", "inbound_nodes": [[["batch_normalization_1819", 0, 0, {}]]]}, {"class_name": "Activation", "config": {"name": "activation_1803", "trainable": false, "dtype": "float32", "activation": "relu"}, "name": "activation_1803", "inbound_nodes": [[["batch_normalization_1822", 0, 0, {}]]]}, {"class_name": "Activation", "config": {"name": "activation_1804", "trainable": false, "dtype": "float32", "activation": "relu"}, "name": "activation_1804", "inbound_nodes": [[["batch_normalization_1823", 0, 0, {}]]]}, {"class_name": "Concatenate", "config": {"name": "mixed1", "trainable": false, "dtype": "float32", "axis": 3}, "name": "mixed1", "inbound_nodes": [[["activation_1798", 0, 0, {}], ["activation_1800", 0, 0, {}], ["activation_1803", 0, 0, {}], ["activation_1804", 0, 0, {}]]]}, {"class_name": "Conv2D", "config": {"name": "conv2d_1808", "trainable": false, "dtype": "float32", "filters": 64, "kernel_size": [1, 1], "strides": [1, 1], "padding": "same", "data_format": "channels_last", "dilation_rate": [1, 1], "groups": 1, "activation": "linear", "use_bias": false, "kernel_initializer": {"class_name": "GlorotUniform", "config": {"seed": null}}, "bias_initializer": {"class_name": "Zeros", "config": {}}, "kernel_regularizer": null, "bias_regularizer": null, "activity_regularizer": null, "kernel_constraint": null, "bias_constraint": null}, "name": "conv2d_1808", "inbound_nodes": [[["mixed1", 0, 0, {}]]]}, {"class_name": "BatchNormalization", "config": {"name": "batch_normalization_1827", "trainable": false, "dtype": "float32", "axis": [3], "momentum": 0.99, "epsilon": 0.001, "center": true, "scale": false, "beta_initializer": {"class_name": "Zeros", "config": {}}, "gamma_initializer": {"class_name": "Ones", "config": {}}, "moving_mean_initializer": {"class_name": "Zeros", "config": {}}, "moving_variance_initializer": {"class_name": "Ones", "config": {}}, "beta_regularizer": null, "gamma_regularizer": null, "beta_constraint": null, "gamma_constraint": null}, "name": "batch_normalization_1827", "inbound_nodes": [[["conv2d_1808", 0, 0, {}]]]}, {"class_name": "Activation", "config": {"name": "activation_1808", "trainable": false, "dtype": "float32", "activation": "relu"}, "name": "activation_1808", "inbound_nodes": [[["batch_normalization_1827", 0, 0, {}]]]}, {"class_name": "Conv2D", "config": {"name": "conv2d_1806", "trainable": false, "dtype": "float32", "filters": 48, "kernel_size": [1, 1], "strides": [1, 1], "padding": "same", "data_format": "channels_last", "dilation_rate": [1, 1], "groups": 1, "activation": "linear", "use_bias": false, "kernel_initializer": {"class_name": "GlorotUniform", "config": {"seed": null}}, "bias_initializer": {"class_name": "Zeros", "config": {}}, "kernel_regularizer": null, "bias_regularizer": null, "activity_regularizer": null, "kernel_constraint": null, "bias_constraint": null}, "name": "conv2d_1806", "inbound_nodes": [[["mixed1", 0, 0, {}]]]}, {"class_name": "Conv2D", "config": {"name": "conv2d_1809", "trainable": false, "dtype": "float32", "filters": 96, "kernel_size": [3, 3], "strides": [1, 1], "padding": "same", "data_format": "channels_last", "dilation_rate": [1, 1], "groups": 1, "activation": "linear", "use_bias": false, "kernel_initializer": {"class_name": "GlorotUniform", "config": {"seed": null}}, "bias_initializer": {"class_name": "Zeros", "config": {}}, "kernel_regularizer": null, "bias_regularizer": null, "activity_regularizer": null, "kernel_constraint": null, "bias_constraint": null}, "name": "conv2d_1809", "inbound_nodes": [[["activation_1808", 0, 0, {}]]]}, {"class_name": "BatchNormalization", "config": {"name": "batch_normalization_1825", "trainable": false, "dtype": "float32", "axis": [3], "momentum": 0.99, "epsilon": 0.001, "center": true, "scale": false, "beta_initializer": {"class_name": "Zeros", "config": {}}, "gamma_initializer": {"class_name": "Ones", "config": {}}, "moving_mean_initializer": {"class_name": "Zeros", "config": {}}, "moving_variance_initializer": {"class_name": "Ones", "config": {}}, "beta_regularizer": null, "gamma_regularizer": null, "beta_constraint": null, "gamma_constraint": null}, "name": "batch_normalization_1825", "inbound_nodes": [[["conv2d_1806", 0, 0, {}]]]}, {"class_name": "BatchNormalization", "config": {"name": "batch_normalization_1828", "trainable": false, "dtype": "float32", "axis": [3], "momentum": 0.99, "epsilon": 0.001, "center": true, "scale": false, "beta_initializer": {"class_name": "Zeros", "config": {}}, "gamma_initializer": {"class_name": "Ones", "config": {}}, "moving_mean_initializer": {"class_name": "Zeros", "config": {}}, "moving_variance_initializer": {"class_name": "Ones", "config": {}}, "beta_regularizer": null, "gamma_regularizer": null, "beta_constraint": null, "gamma_constraint": null}, "name": "batch_normalization_1828", "inbound_nodes": [[["conv2d_1809", 0, 0, {}]]]}, {"class_name": "Activation", "config": {"name": "activation_1806", "trainable": false, "dtype": "float32", "activation": "relu"}, "name": "activation_1806", "inbound_nodes": [[["batch_normalization_1825", 0, 0, {}]]]}, {"class_name": "Activation", "config": {"name": "activation_1809", "trainable": false, "dtype": "float32", "activation": "relu"}, "name": "activation_1809", "inbound_nodes": [[["batch_normalization_1828", 0, 0, {}]]]}, {"class_name": "AveragePooling2D", "config": {"name": "average_pooling2d_173", "trainable": false, "dtype": "float32", "pool_size": [3, 3], "padding": "same", "strides": [1, 1], "data_format": "channels_last"}, "name": "average_pooling2d_173", "inbound_nodes": [[["mixed1", 0, 0, {}]]]}, {"class_name": "Conv2D", "config": {"name": "conv2d_1805", "trainable": false, "dtype": "float32", "filters": 64, "kernel_size": [1, 1], "strides": [1, 1], "padding": "same", "data_format": "channels_last", "dilation_rate": [1, 1], "groups": 1, "activation": "linear", "use_bias": false, "kernel_initializer": {"class_name": "GlorotUniform", "config": {"seed": null}}, "bias_initializer": {"class_name": "Zeros", "config": {}}, "kernel_regularizer": null, "bias_regularizer": null, "activity_regularizer": null, "kernel_constraint": null, "bias_constraint": null}, "name": "conv2d_1805", "inbound_nodes": [[["mixed1", 0, 0, {}]]]}, {"class_name": "Conv2D", "config": {"name": "conv2d_1807", "trainable": false, "dtype": "float32", "filters": 64, "kernel_size": [5, 5], "strides": [1, 1], "padding": "same", "data_format": "channels_last", "dilation_rate": [1, 1], "groups": 1, "activation": "linear", "use_bias": false, "kernel_initializer": {"class_name": "GlorotUniform", "config": {"seed": null}}, "bias_initializer": {"class_name": "Zeros", "config": {}}, "kernel_regularizer": null, "bias_regularizer": null, "activity_regularizer": null, "kernel_constraint": null, "bias_constraint": null}, "name": "conv2d_1807", "inbound_nodes": [[["activation_1806", 0, 0, {}]]]}, {"class_name": "Conv2D", "config": {"name": "conv2d_1810", "trainable": false, "dtype": "float32", "filters": 96, "kernel_size": [3, 3], "strides": [1, 1], "padding": "same", "data_format": "channels_last", "dilation_rate": [1, 1], "groups": 1, "activation": "linear", "use_bias": false, "kernel_initializer": {"class_name": "GlorotUniform", "config": {"seed": null}}, "bias_initializer": {"class_name": "Zeros", "config": {}}, "kernel_regularizer": null, "bias_regularizer": null, "activity_regularizer": null, "kernel_constraint": null, "bias_constraint": null}, "name": "conv2d_1810", "inbound_nodes": [[["activation_1809", 0, 0, {}]]]}, {"class_name": "Conv2D", "config": {"name": "conv2d_1811", "trainable": false, "dtype": "float32", "filters": 64, "kernel_size": [1, 1], "strides": [1, 1], "padding": "same", "data_format": "channels_last", "dilation_rate": [1, 1], "groups": 1, "activation": "linear", "use_bias": false, "kernel_initializer": {"class_name": "GlorotUniform", "config": {"seed": null}}, "bias_initializer": {"class_name": "Zeros", "config": {}}, "kernel_regularizer": null, "bias_regularizer": null, "activity_regularizer": null, "kernel_constraint": null, "bias_constraint": null}, "name": "conv2d_1811", "inbound_nodes": [[["average_pooling2d_173", 0, 0, {}]]]}, {"class_name": "BatchNormalization", "config": {"name": "batch_normalization_1824", "trainable": false, "dtype": "float32", "axis": [3], "momentum": 0.99, "epsilon": 0.001, "center": true, "scale": false, "beta_initializer": {"class_name": "Zeros", "config": {}}, "gamma_initializer": {"class_name": "Ones", "config": {}}, "moving_mean_initializer": {"class_name": "Zeros", "config": {}}, "moving_variance_initializer": {"class_name": "Ones", "config": {}}, "beta_regularizer": null, "gamma_regularizer": null, "beta_constraint": null, "gamma_constraint": null}, "name": "batch_normalization_1824", "inbound_nodes": [[["conv2d_1805", 0, 0, {}]]]}, {"class_name": "BatchNormalization", "config": {"name": "batch_normalization_1826", "trainable": false, "dtype": "float32", "axis": [3], "momentum": 0.99, "epsilon": 0.001, "center": true, "scale": false, "beta_initializer": {"class_name": "Zeros", "config": {}}, "gamma_initializer": {"class_name": "Ones", "config": {}}, "moving_mean_initializer": {"class_name": "Zeros", "config": {}}, "moving_variance_initializer": {"class_name": "Ones", "config": {}}, "beta_regularizer": null, "gamma_regularizer": null, "beta_constraint": null, "gamma_constraint": null}, "name": "batch_normalization_1826", "inbound_nodes": [[["conv2d_1807", 0, 0, {}]]]}, {"class_name": "BatchNormalization", "config": {"name": "batch_normalization_1829", "trainable": false, "dtype": "float32", "axis": [3], "momentum": 0.99, "epsilon": 0.001, "center": true, "scale": false, "beta_initializer": {"class_name": "Zeros", "config": {}}, "gamma_initializer": {"class_name": "Ones", "config": {}}, "moving_mean_initializer": {"class_name": "Zeros", "config": {}}, "moving_variance_initializer": {"class_name": "Ones", "config": {}}, "beta_regularizer": null, "gamma_regularizer": null, "beta_constraint": null, "gamma_constraint": null}, "name": "batch_normalization_1829", "inbound_nodes": [[["conv2d_1810", 0, 0, {}]]]}, {"class_name": "BatchNormalization", "config": {"name": "batch_normalization_1830", "trainable": false, "dtype": "float32", "axis": [3], "momentum": 0.99, "epsilon": 0.001, "center": true, "scale": false, "beta_initializer": {"class_name": "Zeros", "config": {}}, "gamma_initializer": {"class_name": "Ones", "config": {}}, "moving_mean_initializer": {"class_name": "Zeros", "config": {}}, "moving_variance_initializer": {"class_name": "Ones", "config": {}}, "beta_regularizer": null, "gamma_regularizer": null, "beta_constraint": null, "gamma_constraint": null}, "name": "batch_normalization_1830", "inbound_nodes": [[["conv2d_1811", 0, 0, {}]]]}, {"class_name": "Activation", "config": {"name": "activation_1805", "trainable": false, "dtype": "float32", "activation": "relu"}, "name": "activation_1805", "inbound_nodes": [[["batch_normalization_1824", 0, 0, {}]]]}, {"class_name": "Activation", "config": {"name": "activation_1807", "trainable": false, "dtype": "float32", "activation": "relu"}, "name": "activation_1807", "inbound_nodes": [[["batch_normalization_1826", 0, 0, {}]]]}, {"class_name": "Activation", "config": {"name": "activation_1810", "trainable": false, "dtype": "float32", "activation": "relu"}, "name": "activation_1810", "inbound_nodes": [[["batch_normalization_1829", 0, 0, {}]]]}, {"class_name": "Activation", "config": {"name": "activation_1811", "trainable": false, "dtype": "float32", "activation": "relu"}, "name": "activation_1811", "inbound_nodes": [[["batch_normalization_1830", 0, 0, {}]]]}, {"class_name": "Concatenate", "config": {"name": "mixed2", "trainable": false, "dtype": "float32", "axis": 3}, "name": "mixed2", "inbound_nodes": [[["activation_1805", 0, 0, {}], ["activation_1807", 0, 0, {}], ["activation_1810", 0, 0, {}], ["activation_1811", 0, 0, {}]]]}, {"class_name": "Conv2D", "config": {"name": "conv2d_1813", "trainable": false, "dtype": "float32", "filters": 64, "kernel_size": [1, 1], "strides": [1, 1], "padding": "same", "data_format": "channels_last", "dilation_rate": [1, 1], "groups": 1, "activation": "linear", "use_bias": false, "kernel_initializer": {"class_name": "GlorotUniform", "config": {"seed": null}}, "bias_initializer": {"class_name": "Zeros", "config": {}}, "kernel_regularizer": null, "bias_regularizer": null, "activity_regularizer": null, "kernel_constraint": null, "bias_constraint": null}, "name": "conv2d_1813", "inbound_nodes": [[["mixed2", 0, 0, {}]]]}, {"class_name": "BatchNormalization", "config": {"name": "batch_normalization_1832", "trainable": false, "dtype": "float32", "axis": [3], "momentum": 0.99, "epsilon": 0.001, "center": true, "scale": false, "beta_initializer": {"class_name": "Zeros", "config": {}}, "gamma_initializer": {"class_name": "Ones", "config": {}}, "moving_mean_initializer": {"class_name": "Zeros", "config": {}}, "moving_variance_initializer": {"class_name": "Ones", "config": {}}, "beta_regularizer": null, "gamma_regularizer": null, "beta_constraint": null, "gamma_constraint": null}, "name": "batch_normalization_1832", "inbound_nodes": [[["conv2d_1813", 0, 0, {}]]]}, {"class_name": "Activation", "config": {"name": "activation_1813", "trainable": false, "dtype": "float32", "activation": "relu"}, "name": "activation_1813", "inbound_nodes": [[["batch_normalization_1832", 0, 0, {}]]]}, {"class_name": "Conv2D", "config": {"name": "conv2d_1814", "trainable": false, "dtype": "float32", "filters": 96, "kernel_size": [3, 3], "strides": [1, 1], "padding": "same", "data_format": "channels_last", "dilation_rate": [1, 1], "groups": 1, "activation": "linear", "use_bias": false, "kernel_initializer": {"class_name": "GlorotUniform", "config": {"seed": null}}, "bias_initializer": {"class_name": "Zeros", "config": {}}, "kernel_regularizer": null, "bias_regularizer": null, "activity_regularizer": null, "kernel_constraint": null, "bias_constraint": null}, "name": "conv2d_1814", "inbound_nodes": [[["activation_1813", 0, 0, {}]]]}, {"class_name": "BatchNormalization", "config": {"name": "batch_normalization_1833", "trainable": false, "dtype": "float32", "axis": [3], "momentum": 0.99, "epsilon": 0.001, "center": true, "scale": false, "beta_initializer": {"class_name": "Zeros", "config": {}}, "gamma_initializer": {"class_name": "Ones", "config": {}}, "moving_mean_initializer": {"class_name": "Zeros", "config": {}}, "moving_variance_initializer": {"class_name": "Ones", "config": {}}, "beta_regularizer": null, "gamma_regularizer": null, "beta_constraint": null, "gamma_constraint": null}, "name": "batch_normalization_1833", "inbound_nodes": [[["conv2d_1814", 0, 0, {}]]]}, {"class_name": "Activation", "config": {"name": "activation_1814", "trainable": false, "dtype": "float32", "activation": "relu"}, "name": "activation_1814", "inbound_nodes": [[["batch_normalization_1833", 0, 0, {}]]]}, {"class_name": "Conv2D", "config": {"name": "conv2d_1812", "trainable": false, "dtype": "float32", "filters": 384, "kernel_size": [3, 3], "strides": [2, 2], "padding": "valid", "data_format": "channels_last", "dilation_rate": [1, 1], "groups": 1, "activation": "linear", "use_bias": false, "kernel_initializer": {"class_name": "GlorotUniform", "config": {"seed": null}}, "bias_initializer": {"class_name": "Zeros", "config": {}}, "kernel_regularizer": null, "bias_regularizer": null, "activity_regularizer": null, "kernel_constraint": null, "bias_constraint": null}, "name": "conv2d_1812", "inbound_nodes": [[["mixed2", 0, 0, {}]]]}, {"class_name": "Conv2D", "config": {"name": "conv2d_1815", "trainable": false, "dtype": "float32", "filters": 96, "kernel_size": [3, 3], "strides": [2, 2], "padding": "valid", "data_format": "channels_last", "dilation_rate": [1, 1], "groups": 1, "activation": "linear", "use_bias": false, "kernel_initializer": {"class_name": "GlorotUniform", "config": {"seed": null}}, "bias_initializer": {"class_name": "Zeros", "config": {}}, "kernel_regularizer": null, "bias_regularizer": null, "activity_regularizer": null, "kernel_constraint": null, "bias_constraint": null}, "name": "conv2d_1815", "inbound_nodes": [[["activation_1814", 0, 0, {}]]]}, {"class_name": "BatchNormalization", "config": {"name": "batch_normalization_1831", "trainable": false, "dtype": "float32", "axis": [3], "momentum": 0.99, "epsilon": 0.001, "center": true, "scale": false, "beta_initializer": {"class_name": "Zeros", "config": {}}, "gamma_initializer": {"class_name": "Ones", "config": {}}, "moving_mean_initializer": {"class_name": "Zeros", "config": {}}, "moving_variance_initializer": {"class_name": "Ones", "config": {}}, "beta_regularizer": null, "gamma_regularizer": null, "beta_constraint": null, "gamma_constraint": null}, "name": "batch_normalization_1831", "inbound_nodes": [[["conv2d_1812", 0, 0, {}]]]}, {"class_name": "BatchNormalization", "config": {"name": "batch_normalization_1834", "trainable": false, "dtype": "float32", "axis": [3], "momentum": 0.99, "epsilon": 0.001, "center": true, "scale": false, "beta_initializer": {"class_name": "Zeros", "config": {}}, "gamma_initializer": {"class_name": "Ones", "config": {}}, "moving_mean_initializer": {"class_name": "Zeros", "config": {}}, "moving_variance_initializer": {"class_name": "Ones", "config": {}}, "beta_regularizer": null, "gamma_regularizer": null, "beta_constraint": null, "gamma_constraint": null}, "name": "batch_normalization_1834", "inbound_nodes": [[["conv2d_1815", 0, 0, {}]]]}, {"class_name": "Activation", "config": {"name": "activation_1812", "trainable": false, "dtype": "float32", "activation": "relu"}, "name": "activation_1812", "inbound_nodes": [[["batch_normalization_1831", 0, 0, {}]]]}, {"class_name": "Activation", "config": {"name": "activation_1815", "trainable": false, "dtype": "float32", "activation": "relu"}, "name": "activation_1815", "inbound_nodes": [[["batch_normalization_1834", 0, 0, {}]]]}, {"class_name": "MaxPooling2D", "config": {"name": "max_pooling2d_78", "trainable": false, "dtype": "float32", "pool_size": [3, 3], "padding": "valid", "strides": [2, 2], "data_format": "channels_last"}, "name": "max_pooling2d_78", "inbound_nodes": [[["mixed2", 0, 0, {}]]]}, {"class_name": "Concatenate", "config": {"name": "mixed3", "trainable": false, "dtype": "float32", "axis": 3}, "name": "mixed3", "inbound_nodes": [[["activation_1812", 0, 0, {}], ["activation_1815", 0, 0, {}], ["max_pooling2d_78", 0, 0, {}]]]}, {"class_name": "Conv2D", "config": {"name": "conv2d_1820", "trainable": false, "dtype": "float32", "filters": 128, "kernel_size": [1, 1], "strides": [1, 1], "padding": "same", "data_format": "channels_last", "dilation_rate": [1, 1], "groups": 1, "activation": "linear", "use_bias": false, "kernel_initializer": {"class_name": "GlorotUniform", "config": {"seed": null}}, "bias_initializer": {"class_name": "Zeros", "config": {}}, "kernel_regularizer": null, "bias_regularizer": null, "activity_regularizer": null, "kernel_constraint": null, "bias_constraint": null}, "name": "conv2d_1820", "inbound_nodes": [[["mixed3", 0, 0, {}]]]}, {"class_name": "BatchNormalization", "config": {"name": "batch_normalization_1839", "trainable": false, "dtype": "float32", "axis": [3], "momentum": 0.99, "epsilon": 0.001, "center": true, "scale": false, "beta_initializer": {"class_name": "Zeros", "config": {}}, "gamma_initializer": {"class_name": "Ones", "config": {}}, "moving_mean_initializer": {"class_name": "Zeros", "config": {}}, "moving_variance_initializer": {"class_name": "Ones", "config": {}}, "beta_regularizer": null, "gamma_regularizer": null, "beta_constraint": null, "gamma_constraint": null}, "name": "batch_normalization_1839", "inbound_nodes": [[["conv2d_1820", 0, 0, {}]]]}, {"class_name": "Activation", "config": {"name": "activation_1820", "trainable": false, "dtype": "float32", "activation": "relu"}, "name": "activation_1820", "inbound_nodes": [[["batch_normalization_1839", 0, 0, {}]]]}, {"class_name": "Conv2D", "config": {"name": "conv2d_1821", "trainable": false, "dtype": "float32", "filters": 128, "kernel_size": [7, 1], "strides": [1, 1], "padding": "same", "data_format": "channels_last", "dilation_rate": [1, 1], "groups": 1, "activation": "linear", "use_bias": false, "kernel_initializer": {"class_name": "GlorotUniform", "config": {"seed": null}}, "bias_initializer": {"class_name": "Zeros", "config": {}}, "kernel_regularizer": null, "bias_regularizer": null, "activity_regularizer": null, "kernel_constraint": null, "bias_constraint": null}, "name": "conv2d_1821", "inbound_nodes": [[["activation_1820", 0, 0, {}]]]}, {"class_name": "BatchNormalization", "config": {"name": "batch_normalization_1840", "trainable": false, "dtype": "float32", "axis": [3], "momentum": 0.99, "epsilon": 0.001, "center": true, "scale": false, "beta_initializer": {"class_name": "Zeros", "config": {}}, "gamma_initializer": {"class_name": "Ones", "config": {}}, "moving_mean_initializer": {"class_name": "Zeros", "config": {}}, "moving_variance_initializer": {"class_name": "Ones", "config": {}}, "beta_regularizer": null, "gamma_regularizer": null, "beta_constraint": null, "gamma_constraint": null}, "name": "batch_normalization_1840", "inbound_nodes": [[["conv2d_1821", 0, 0, {}]]]}, {"class_name": "Activation", "config": {"name": "activation_1821", "trainable": false, "dtype": "float32", "activation": "relu"}, "name": "activation_1821", "inbound_nodes": [[["batch_normalization_1840", 0, 0, {}]]]}, {"class_name": "Conv2D", "config": {"name": "conv2d_1817", "trainable": false, "dtype": "float32", "filters": 128, "kernel_size": [1, 1], "strides": [1, 1], "padding": "same", "data_format": "channels_last", "dilation_rate": [1, 1], "groups": 1, "activation": "linear", "use_bias": false, "kernel_initializer": {"class_name": "GlorotUniform", "config": {"seed": null}}, "bias_initializer": {"class_name": "Zeros", "config": {}}, "kernel_regularizer": null, "bias_regularizer": null, "activity_regularizer": null, "kernel_constraint": null, "bias_constraint": null}, "name": "conv2d_1817", "inbound_nodes": [[["mixed3", 0, 0, {}]]]}, {"class_name": "Conv2D", "config": {"name": "conv2d_1822", "trainable": false, "dtype": "float32", "filters": 128, "kernel_size": [1, 7], "strides": [1, 1], "padding": "same", "data_format": "channels_last", "dilation_rate": [1, 1], "groups": 1, "activation": "linear", "use_bias": false, "kernel_initializer": {"class_name": "GlorotUniform", "config": {"seed": null}}, "bias_initializer": {"class_name": "Zeros", "config": {}}, "kernel_regularizer": null, "bias_regularizer": null, "activity_regularizer": null, "kernel_constraint": null, "bias_constraint": null}, "name": "conv2d_1822", "inbound_nodes": [[["activation_1821", 0, 0, {}]]]}, {"class_name": "BatchNormalization", "config": {"name": "batch_normalization_1836", "trainable": false, "dtype": "float32", "axis": [3], "momentum": 0.99, "epsilon": 0.001, "center": true, "scale": false, "beta_initializer": {"class_name": "Zeros", "config": {}}, "gamma_initializer": {"class_name": "Ones", "config": {}}, "moving_mean_initializer": {"class_name": "Zeros", "config": {}}, "moving_variance_initializer": {"class_name": "Ones", "config": {}}, "beta_regularizer": null, "gamma_regularizer": null, "beta_constraint": null, "gamma_constraint": null}, "name": "batch_normalization_1836", "inbound_nodes": [[["conv2d_1817", 0, 0, {}]]]}, {"class_name": "BatchNormalization", "config": {"name": "batch_normalization_1841", "trainable": false, "dtype": "float32", "axis": [3], "momentum": 0.99, "epsilon": 0.001, "center": true, "scale": false, "beta_initializer": {"class_name": "Zeros", "config": {}}, "gamma_initializer": {"class_name": "Ones", "config": {}}, "moving_mean_initializer": {"class_name": "Zeros", "config": {}}, "moving_variance_initializer": {"class_name": "Ones", "config": {}}, "beta_regularizer": null, "gamma_regularizer": null, "beta_constraint": null, "gamma_constraint": null}, "name": "batch_normalization_1841", "inbound_nodes": [[["conv2d_1822", 0, 0, {}]]]}, {"class_name": "Activation", "config": {"name": "activation_1817", "trainable": false, "dtype": "float32", "activation": "relu"}, "name": "activation_1817", "inbound_nodes": [[["batch_normalization_1836", 0, 0, {}]]]}, {"class_name": "Activation", "config": {"name": "activation_1822", "trainable": false, "dtype": "float32", "activation": "relu"}, "name": "activation_1822", "inbound_nodes": [[["batch_normalization_1841", 0, 0, {}]]]}, {"class_name": "Conv2D", "config": {"name": "conv2d_1818", "trainable": false, "dtype": "float32", "filters": 128, "kernel_size": [1, 7], "strides": [1, 1], "padding": "same", "data_format": "channels_last", "dilation_rate": [1, 1], "groups": 1, "activation": "linear", "use_bias": false, "kernel_initializer": {"class_name": "GlorotUniform", "config": {"seed": null}}, "bias_initializer": {"class_name": "Zeros", "config": {}}, "kernel_regularizer": null, "bias_regularizer": null, "activity_regularizer": null, "kernel_constraint": null, "bias_constraint": null}, "name": "conv2d_1818", "inbound_nodes": [[["activation_1817", 0, 0, {}]]]}, {"class_name": "Conv2D", "config": {"name": "conv2d_1823", "trainable": false, "dtype": "float32", "filters": 128, "kernel_size": [7, 1], "strides": [1, 1], "padding": "same", "data_format": "channels_last", "dilation_rate": [1, 1], "groups": 1, "activation": "linear", "use_bias": false, "kernel_initializer": {"class_name": "GlorotUniform", "config": {"seed": null}}, "bias_initializer": {"class_name": "Zeros", "config": {}}, "kernel_regularizer": null, "bias_regularizer": null, "activity_regularizer": null, "kernel_constraint": null, "bias_constraint": null}, "name": "conv2d_1823", "inbound_nodes": [[["activation_1822", 0, 0, {}]]]}, {"class_name": "BatchNormalization", "config": {"name": "batch_normalization_1837", "trainable": false, "dtype": "float32", "axis": [3], "momentum": 0.99, "epsilon": 0.001, "center": true, "scale": false, "beta_initializer": {"class_name": "Zeros", "config": {}}, "gamma_initializer": {"class_name": "Ones", "config": {}}, "moving_mean_initializer": {"class_name": "Zeros", "config": {}}, "moving_variance_initializer": {"class_name": "Ones", "config": {}}, "beta_regularizer": null, "gamma_regularizer": null, "beta_constraint": null, "gamma_constraint": null}, "name": "batch_normalization_1837", "inbound_nodes": [[["conv2d_1818", 0, 0, {}]]]}, {"class_name": "BatchNormalization", "config": {"name": "batch_normalization_1842", "trainable": false, "dtype": "float32", "axis": [3], "momentum": 0.99, "epsilon": 0.001, "center": true, "scale": false, "beta_initializer": {"class_name": "Zeros", "config": {}}, "gamma_initializer": {"class_name": "Ones", "config": {}}, "moving_mean_initializer": {"class_name": "Zeros", "config": {}}, "moving_variance_initializer": {"class_name": "Ones", "config": {}}, "beta_regularizer": null, "gamma_regularizer": null, "beta_constraint": null, "gamma_constraint": null}, "name": "batch_normalization_1842", "inbound_nodes": [[["conv2d_1823", 0, 0, {}]]]}, {"class_name": "Activation", "config": {"name": "activation_1818", "trainable": false, "dtype": "float32", "activation": "relu"}, "name": "activation_1818", "inbound_nodes": [[["batch_normalization_1837", 0, 0, {}]]]}, {"class_name": "Activation", "config": {"name": "activation_1823", "trainable": false, "dtype": "float32", "activation": "relu"}, "name": "activation_1823", "inbound_nodes": [[["batch_normalization_1842", 0, 0, {}]]]}, {"class_name": "AveragePooling2D", "config": {"name": "average_pooling2d_174", "trainable": false, "dtype": "float32", "pool_size": [3, 3], "padding": "same", "strides": [1, 1], "data_format": "channels_last"}, "name": "average_pooling2d_174", "inbound_nodes": [[["mixed3", 0, 0, {}]]]}, {"class_name": "Conv2D", "config": {"name": "conv2d_1816", "trainable": false, "dtype": "float32", "filters": 192, "kernel_size": [1, 1], "strides": [1, 1], "padding": "same", "data_format": "channels_last", "dilation_rate": [1, 1], "groups": 1, "activation": "linear", "use_bias": false, "kernel_initializer": {"class_name": "GlorotUniform", "config": {"seed": null}}, "bias_initializer": {"class_name": "Zeros", "config": {}}, "kernel_regularizer": null, "bias_regularizer": null, "activity_regularizer": null, "kernel_constraint": null, "bias_constraint": null}, "name": "conv2d_1816", "inbound_nodes": [[["mixed3", 0, 0, {}]]]}, {"class_name": "Conv2D", "config": {"name": "conv2d_1819", "trainable": false, "dtype": "float32", "filters": 192, "kernel_size": [7, 1], "strides": [1, 1], "padding": "same", "data_format": "channels_last", "dilation_rate": [1, 1], "groups": 1, "activation": "linear", "use_bias": false, "kernel_initializer": {"class_name": "GlorotUniform", "config": {"seed": null}}, "bias_initializer": {"class_name": "Zeros", "config": {}}, "kernel_regularizer": null, "bias_regularizer": null, "activity_regularizer": null, "kernel_constraint": null, "bias_constraint": null}, "name": "conv2d_1819", "inbound_nodes": [[["activation_1818", 0, 0, {}]]]}, {"class_name": "Conv2D", "config": {"name": "conv2d_1824", "trainable": false, "dtype": "float32", "filters": 192, "kernel_size": [1, 7], "strides": [1, 1], "padding": "same", "data_format": "channels_last", "dilation_rate": [1, 1], "groups": 1, "activation": "linear", "use_bias": false, "kernel_initializer": {"class_name": "GlorotUniform", "config": {"seed": null}}, "bias_initializer": {"class_name": "Zeros", "config": {}}, "kernel_regularizer": null, "bias_regularizer": null, "activity_regularizer": null, "kernel_constraint": null, "bias_constraint": null}, "name": "conv2d_1824", "inbound_nodes": [[["activation_1823", 0, 0, {}]]]}, {"class_name": "Conv2D", "config": {"name": "conv2d_1825", "trainable": false, "dtype": "float32", "filters": 192, "kernel_size": [1, 1], "strides": [1, 1], "padding": "same", "data_format": "channels_last", "dilation_rate": [1, 1], "groups": 1, "activation": "linear", "use_bias": false, "kernel_initializer": {"class_name": "GlorotUniform", "config": {"seed": null}}, "bias_initializer": {"class_name": "Zeros", "config": {}}, "kernel_regularizer": null, "bias_regularizer": null, "activity_regularizer": null, "kernel_constraint": null, "bias_constraint": null}, "name": "conv2d_1825", "inbound_nodes": [[["average_pooling2d_174", 0, 0, {}]]]}, {"class_name": "BatchNormalization", "config": {"name": "batch_normalization_1835", "trainable": false, "dtype": "float32", "axis": [3], "momentum": 0.99, "epsilon": 0.001, "center": true, "scale": false, "beta_initializer": {"class_name": "Zeros", "config": {}}, "gamma_initializer": {"class_name": "Ones", "config": {}}, "moving_mean_initializer": {"class_name": "Zeros", "config": {}}, "moving_variance_initializer": {"class_name": "Ones", "config": {}}, "beta_regularizer": null, "gamma_regularizer": null, "beta_constraint": null, "gamma_constraint": null}, "name": "batch_normalization_1835", "inbound_nodes": [[["conv2d_1816", 0, 0, {}]]]}, {"class_name": "BatchNormalization", "config": {"name": "batch_normalization_1838", "trainable": false, "dtype": "float32", "axis": [3], "momentum": 0.99, "epsilon": 0.001, "center": true, "scale": false, "beta_initializer": {"class_name": "Zeros", "config": {}}, "gamma_initializer": {"class_name": "Ones", "config": {}}, "moving_mean_initializer": {"class_name": "Zeros", "config": {}}, "moving_variance_initializer": {"class_name": "Ones", "config": {}}, "beta_regularizer": null, "gamma_regularizer": null, "beta_constraint": null, "gamma_constraint": null}, "name": "batch_normalization_1838", "inbound_nodes": [[["conv2d_1819", 0, 0, {}]]]}, {"class_name": "BatchNormalization", "config": {"name": "batch_normalization_1843", "trainable": false, "dtype": "float32", "axis": [3], "momentum": 0.99, "epsilon": 0.001, "center": true, "scale": false, "beta_initializer": {"class_name": "Zeros", "config": {}}, "gamma_initializer": {"class_name": "Ones", "config": {}}, "moving_mean_initializer": {"class_name": "Zeros", "config": {}}, "moving_variance_initializer": {"class_name": "Ones", "config": {}}, "beta_regularizer": null, "gamma_regularizer": null, "beta_constraint": null, "gamma_constraint": null}, "name": "batch_normalization_1843", "inbound_nodes": [[["conv2d_1824", 0, 0, {}]]]}, {"class_name": "BatchNormalization", "config": {"name": "batch_normalization_1844", "trainable": false, "dtype": "float32", "axis": [3], "momentum": 0.99, "epsilon": 0.001, "center": true, "scale": false, "beta_initializer": {"class_name": "Zeros", "config": {}}, "gamma_initializer": {"class_name": "Ones", "config": {}}, "moving_mean_initializer": {"class_name": "Zeros", "config": {}}, "moving_variance_initializer": {"class_name": "Ones", "config": {}}, "beta_regularizer": null, "gamma_regularizer": null, "beta_constraint": null, "gamma_constraint": null}, "name": "batch_normalization_1844", "inbound_nodes": [[["conv2d_1825", 0, 0, {}]]]}, {"class_name": "Activation", "config": {"name": "activation_1816", "trainable": false, "dtype": "float32", "activation": "relu"}, "name": "activation_1816", "inbound_nodes": [[["batch_normalization_1835", 0, 0, {}]]]}, {"class_name": "Activation", "config": {"name": "activation_1819", "trainable": false, "dtype": "float32", "activation": "relu"}, "name": "activation_1819", "inbound_nodes": [[["batch_normalization_1838", 0, 0, {}]]]}, {"class_name": "Activation", "config": {"name": "activation_1824", "trainable": false, "dtype": "float32", "activation": "relu"}, "name": "activation_1824", "inbound_nodes": [[["batch_normalization_1843", 0, 0, {}]]]}, {"class_name": "Activation", "config": {"name": "activation_1825", "trainable": false, "dtype": "float32", "activation": "relu"}, "name": "activation_1825", "inbound_nodes": [[["batch_normalization_1844", 0, 0, {}]]]}, {"class_name": "Concatenate", "config": {"name": "mixed4", "trainable": false, "dtype": "float32", "axis": 3}, "name": "mixed4", "inbound_nodes": [[["activation_1816", 0, 0, {}], ["activation_1819", 0, 0, {}], ["activation_1824", 0, 0, {}], ["activation_1825", 0, 0, {}]]]}, {"class_name": "Conv2D", "config": {"name": "conv2d_1830", "trainable": false, "dtype": "float32", "filters": 160, "kernel_size": [1, 1], "strides": [1, 1], "padding": "same", "data_format": "channels_last", "dilation_rate": [1, 1], "groups": 1, "activation": "linear", "use_bias": false, "kernel_initializer": {"class_name": "GlorotUniform", "config": {"seed": null}}, "bias_initializer": {"class_name": "Zeros", "config": {}}, "kernel_regularizer": null, "bias_regularizer": null, "activity_regularizer": null, "kernel_constraint": null, "bias_constraint": null}, "name": "conv2d_1830", "inbound_nodes": [[["mixed4", 0, 0, {}]]]}, {"class_name": "BatchNormalization", "config": {"name": "batch_normalization_1849", "trainable": false, "dtype": "float32", "axis": [3], "momentum": 0.99, "epsilon": 0.001, "center": true, "scale": false, "beta_initializer": {"class_name": "Zeros", "config": {}}, "gamma_initializer": {"class_name": "Ones", "config": {}}, "moving_mean_initializer": {"class_name": "Zeros", "config": {}}, "moving_variance_initializer": {"class_name": "Ones", "config": {}}, "beta_regularizer": null, "gamma_regularizer": null, "beta_constraint": null, "gamma_constraint": null}, "name": "batch_normalization_1849", "inbound_nodes": [[["conv2d_1830", 0, 0, {}]]]}, {"class_name": "Activation", "config": {"name": "activation_1830", "trainable": false, "dtype": "float32", "activation": "relu"}, "name": "activation_1830", "inbound_nodes": [[["batch_normalization_1849", 0, 0, {}]]]}, {"class_name": "Conv2D", "config": {"name": "conv2d_1831", "trainable": false, "dtype": "float32", "filters": 160, "kernel_size": [7, 1], "strides": [1, 1], "padding": "same", "data_format": "channels_last", "dilation_rate": [1, 1], "groups": 1, "activation": "linear", "use_bias": false, "kernel_initializer": {"class_name": "GlorotUniform", "config": {"seed": null}}, "bias_initializer": {"class_name": "Zeros", "config": {}}, "kernel_regularizer": null, "bias_regularizer": null, "activity_regularizer": null, "kernel_constraint": null, "bias_constraint": null}, "name": "conv2d_1831", "inbound_nodes": [[["activation_1830", 0, 0, {}]]]}, {"class_name": "BatchNormalization", "config": {"name": "batch_normalization_1850", "trainable": false, "dtype": "float32", "axis": [3], "momentum": 0.99, "epsilon": 0.001, "center": true, "scale": false, "beta_initializer": {"class_name": "Zeros", "config": {}}, "gamma_initializer": {"class_name": "Ones", "config": {}}, "moving_mean_initializer": {"class_name": "Zeros", "config": {}}, "moving_variance_initializer": {"class_name": "Ones", "config": {}}, "beta_regularizer": null, "gamma_regularizer": null, "beta_constraint": null, "gamma_constraint": null}, "name": "batch_normalization_1850", "inbound_nodes": [[["conv2d_1831", 0, 0, {}]]]}, {"class_name": "Activation", "config": {"name": "activation_1831", "trainable": false, "dtype": "float32", "activation": "relu"}, "name": "activation_1831", "inbound_nodes": [[["batch_normalization_1850", 0, 0, {}]]]}, {"class_name": "Conv2D", "config": {"name": "conv2d_1827", "trainable": false, "dtype": "float32", "filters": 160, "kernel_size": [1, 1], "strides": [1, 1], "padding": "same", "data_format": "channels_last", "dilation_rate": [1, 1], "groups": 1, "activation": "linear", "use_bias": false, "kernel_initializer": {"class_name": "GlorotUniform", "config": {"seed": null}}, "bias_initializer": {"class_name": "Zeros", "config": {}}, "kernel_regularizer": null, "bias_regularizer": null, "activity_regularizer": null, "kernel_constraint": null, "bias_constraint": null}, "name": "conv2d_1827", "inbound_nodes": [[["mixed4", 0, 0, {}]]]}, {"class_name": "Conv2D", "config": {"name": "conv2d_1832", "trainable": false, "dtype": "float32", "filters": 160, "kernel_size": [1, 7], "strides": [1, 1], "padding": "same", "data_format": "channels_last", "dilation_rate": [1, 1], "groups": 1, "activation": "linear", "use_bias": false, "kernel_initializer": {"class_name": "GlorotUniform", "config": {"seed": null}}, "bias_initializer": {"class_name": "Zeros", "config": {}}, "kernel_regularizer": null, "bias_regularizer": null, "activity_regularizer": null, "kernel_constraint": null, "bias_constraint": null}, "name": "conv2d_1832", "inbound_nodes": [[["activation_1831", 0, 0, {}]]]}, {"class_name": "BatchNormalization", "config": {"name": "batch_normalization_1846", "trainable": false, "dtype": "float32", "axis": [3], "momentum": 0.99, "epsilon": 0.001, "center": true, "scale": false, "beta_initializer": {"class_name": "Zeros", "config": {}}, "gamma_initializer": {"class_name": "Ones", "config": {}}, "moving_mean_initializer": {"class_name": "Zeros", "config": {}}, "moving_variance_initializer": {"class_name": "Ones", "config": {}}, "beta_regularizer": null, "gamma_regularizer": null, "beta_constraint": null, "gamma_constraint": null}, "name": "batch_normalization_1846", "inbound_nodes": [[["conv2d_1827", 0, 0, {}]]]}, {"class_name": "BatchNormalization", "config": {"name": "batch_normalization_1851", "trainable": false, "dtype": "float32", "axis": [3], "momentum": 0.99, "epsilon": 0.001, "center": true, "scale": false, "beta_initializer": {"class_name": "Zeros", "config": {}}, "gamma_initializer": {"class_name": "Ones", "config": {}}, "moving_mean_initializer": {"class_name": "Zeros", "config": {}}, "moving_variance_initializer": {"class_name": "Ones", "config": {}}, "beta_regularizer": null, "gamma_regularizer": null, "beta_constraint": null, "gamma_constraint": null}, "name": "batch_normalization_1851", "inbound_nodes": [[["conv2d_1832", 0, 0, {}]]]}, {"class_name": "Activation", "config": {"name": "activation_1827", "trainable": false, "dtype": "float32", "activation": "relu"}, "name": "activation_1827", "inbound_nodes": [[["batch_normalization_1846", 0, 0, {}]]]}, {"class_name": "Activation", "config": {"name": "activation_1832", "trainable": false, "dtype": "float32", "activation": "relu"}, "name": "activation_1832", "inbound_nodes": [[["batch_normalization_1851", 0, 0, {}]]]}, {"class_name": "Conv2D", "config": {"name": "conv2d_1828", "trainable": false, "dtype": "float32", "filters": 160, "kernel_size": [1, 7], "strides": [1, 1], "padding": "same", "data_format": "channels_last", "dilation_rate": [1, 1], "groups": 1, "activation": "linear", "use_bias": false, "kernel_initializer": {"class_name": "GlorotUniform", "config": {"seed": null}}, "bias_initializer": {"class_name": "Zeros", "config": {}}, "kernel_regularizer": null, "bias_regularizer": null, "activity_regularizer": null, "kernel_constraint": null, "bias_constraint": null}, "name": "conv2d_1828", "inbound_nodes": [[["activation_1827", 0, 0, {}]]]}, {"class_name": "Conv2D", "config": {"name": "conv2d_1833", "trainable": false, "dtype": "float32", "filters": 160, "kernel_size": [7, 1], "strides": [1, 1], "padding": "same", "data_format": "channels_last", "dilation_rate": [1, 1], "groups": 1, "activation": "linear", "use_bias": false, "kernel_initializer": {"class_name": "GlorotUniform", "config": {"seed": null}}, "bias_initializer": {"class_name": "Zeros", "config": {}}, "kernel_regularizer": null, "bias_regularizer": null, "activity_regularizer": null, "kernel_constraint": null, "bias_constraint": null}, "name": "conv2d_1833", "inbound_nodes": [[["activation_1832", 0, 0, {}]]]}, {"class_name": "BatchNormalization", "config": {"name": "batch_normalization_1847", "trainable": false, "dtype": "float32", "axis": [3], "momentum": 0.99, "epsilon": 0.001, "center": true, "scale": false, "beta_initializer": {"class_name": "Zeros", "config": {}}, "gamma_initializer": {"class_name": "Ones", "config": {}}, "moving_mean_initializer": {"class_name": "Zeros", "config": {}}, "moving_variance_initializer": {"class_name": "Ones", "config": {}}, "beta_regularizer": null, "gamma_regularizer": null, "beta_constraint": null, "gamma_constraint": null}, "name": "batch_normalization_1847", "inbound_nodes": [[["conv2d_1828", 0, 0, {}]]]}, {"class_name": "BatchNormalization", "config": {"name": "batch_normalization_1852", "trainable": false, "dtype": "float32", "axis": [3], "momentum": 0.99, "epsilon": 0.001, "center": true, "scale": false, "beta_initializer": {"class_name": "Zeros", "config": {}}, "gamma_initializer": {"class_name": "Ones", "config": {}}, "moving_mean_initializer": {"class_name": "Zeros", "config": {}}, "moving_variance_initializer": {"class_name": "Ones", "config": {}}, "beta_regularizer": null, "gamma_regularizer": null, "beta_constraint": null, "gamma_constraint": null}, "name": "batch_normalization_1852", "inbound_nodes": [[["conv2d_1833", 0, 0, {}]]]}, {"class_name": "Activation", "config": {"name": "activation_1828", "trainable": false, "dtype": "float32", "activation": "relu"}, "name": "activation_1828", "inbound_nodes": [[["batch_normalization_1847", 0, 0, {}]]]}, {"class_name": "Activation", "config": {"name": "activation_1833", "trainable": false, "dtype": "float32", "activation": "relu"}, "name": "activation_1833", "inbound_nodes": [[["batch_normalization_1852", 0, 0, {}]]]}, {"class_name": "AveragePooling2D", "config": {"name": "average_pooling2d_175", "trainable": false, "dtype": "float32", "pool_size": [3, 3], "padding": "same", "strides": [1, 1], "data_format": "channels_last"}, "name": "average_pooling2d_175", "inbound_nodes": [[["mixed4", 0, 0, {}]]]}, {"class_name": "Conv2D", "config": {"name": "conv2d_1826", "trainable": false, "dtype": "float32", "filters": 192, "kernel_size": [1, 1], "strides": [1, 1], "padding": "same", "data_format": "channels_last", "dilation_rate": [1, 1], "groups": 1, "activation": "linear", "use_bias": false, "kernel_initializer": {"class_name": "GlorotUniform", "config": {"seed": null}}, "bias_initializer": {"class_name": "Zeros", "config": {}}, "kernel_regularizer": null, "bias_regularizer": null, "activity_regularizer": null, "kernel_constraint": null, "bias_constraint": null}, "name": "conv2d_1826", "inbound_nodes": [[["mixed4", 0, 0, {}]]]}, {"class_name": "Conv2D", "config": {"name": "conv2d_1829", "trainable": false, "dtype": "float32", "filters": 192, "kernel_size": [7, 1], "strides": [1, 1], "padding": "same", "data_format": "channels_last", "dilation_rate": [1, 1], "groups": 1, "activation": "linear", "use_bias": false, "kernel_initializer": {"class_name": "GlorotUniform", "config": {"seed": null}}, "bias_initializer": {"class_name": "Zeros", "config": {}}, "kernel_regularizer": null, "bias_regularizer": null, "activity_regularizer": null, "kernel_constraint": null, "bias_constraint": null}, "name": "conv2d_1829", "inbound_nodes": [[["activation_1828", 0, 0, {}]]]}, {"class_name": "Conv2D", "config": {"name": "conv2d_1834", "trainable": false, "dtype": "float32", "filters": 192, "kernel_size": [1, 7], "strides": [1, 1], "padding": "same", "data_format": "channels_last", "dilation_rate": [1, 1], "groups": 1, "activation": "linear", "use_bias": false, "kernel_initializer": {"class_name": "GlorotUniform", "config": {"seed": null}}, "bias_initializer": {"class_name": "Zeros", "config": {}}, "kernel_regularizer": null, "bias_regularizer": null, "activity_regularizer": null, "kernel_constraint": null, "bias_constraint": null}, "name": "conv2d_1834", "inbound_nodes": [[["activation_1833", 0, 0, {}]]]}, {"class_name": "Conv2D", "config": {"name": "conv2d_1835", "trainable": false, "dtype": "float32", "filters": 192, "kernel_size": [1, 1], "strides": [1, 1], "padding": "same", "data_format": "channels_last", "dilation_rate": [1, 1], "groups": 1, "activation": "linear", "use_bias": false, "kernel_initializer": {"class_name": "GlorotUniform", "config": {"seed": null}}, "bias_initializer": {"class_name": "Zeros", "config": {}}, "kernel_regularizer": null, "bias_regularizer": null, "activity_regularizer": null, "kernel_constraint": null, "bias_constraint": null}, "name": "conv2d_1835", "inbound_nodes": [[["average_pooling2d_175", 0, 0, {}]]]}, {"class_name": "BatchNormalization", "config": {"name": "batch_normalization_1845", "trainable": false, "dtype": "float32", "axis": [3], "momentum": 0.99, "epsilon": 0.001, "center": true, "scale": false, "beta_initializer": {"class_name": "Zeros", "config": {}}, "gamma_initializer": {"class_name": "Ones", "config": {}}, "moving_mean_initializer": {"class_name": "Zeros", "config": {}}, "moving_variance_initializer": {"class_name": "Ones", "config": {}}, "beta_regularizer": null, "gamma_regularizer": null, "beta_constraint": null, "gamma_constraint": null}, "name": "batch_normalization_1845", "inbound_nodes": [[["conv2d_1826", 0, 0, {}]]]}, {"class_name": "BatchNormalization", "config": {"name": "batch_normalization_1848", "trainable": false, "dtype": "float32", "axis": [3], "momentum": 0.99, "epsilon": 0.001, "center": true, "scale": false, "beta_initializer": {"class_name": "Zeros", "config": {}}, "gamma_initializer": {"class_name": "Ones", "config": {}}, "moving_mean_initializer": {"class_name": "Zeros", "config": {}}, "moving_variance_initializer": {"class_name": "Ones", "config": {}}, "beta_regularizer": null, "gamma_regularizer": null, "beta_constraint": null, "gamma_constraint": null}, "name": "batch_normalization_1848", "inbound_nodes": [[["conv2d_1829", 0, 0, {}]]]}, {"class_name": "BatchNormalization", "config": {"name": "batch_normalization_1853", "trainable": false, "dtype": "float32", "axis": [3], "momentum": 0.99, "epsilon": 0.001, "center": true, "scale": false, "beta_initializer": {"class_name": "Zeros", "config": {}}, "gamma_initializer": {"class_name": "Ones", "config": {}}, "moving_mean_initializer": {"class_name": "Zeros", "config": {}}, "moving_variance_initializer": {"class_name": "Ones", "config": {}}, "beta_regularizer": null, "gamma_regularizer": null, "beta_constraint": null, "gamma_constraint": null}, "name": "batch_normalization_1853", "inbound_nodes": [[["conv2d_1834", 0, 0, {}]]]}, {"class_name": "BatchNormalization", "config": {"name": "batch_normalization_1854", "trainable": false, "dtype": "float32", "axis": [3], "momentum": 0.99, "epsilon": 0.001, "center": true, "scale": false, "beta_initializer": {"class_name": "Zeros", "config": {}}, "gamma_initializer": {"class_name": "Ones", "config": {}}, "moving_mean_initializer": {"class_name": "Zeros", "config": {}}, "moving_variance_initializer": {"class_name": "Ones", "config": {}}, "beta_regularizer": null, "gamma_regularizer": null, "beta_constraint": null, "gamma_constraint": null}, "name": "batch_normalization_1854", "inbound_nodes": [[["conv2d_1835", 0, 0, {}]]]}, {"class_name": "Activation", "config": {"name": "activation_1826", "trainable": false, "dtype": "float32", "activation": "relu"}, "name": "activation_1826", "inbound_nodes": [[["batch_normalization_1845", 0, 0, {}]]]}, {"class_name": "Activation", "config": {"name": "activation_1829", "trainable": false, "dtype": "float32", "activation": "relu"}, "name": "activation_1829", "inbound_nodes": [[["batch_normalization_1848", 0, 0, {}]]]}, {"class_name": "Activation", "config": {"name": "activation_1834", "trainable": false, "dtype": "float32", "activation": "relu"}, "name": "activation_1834", "inbound_nodes": [[["batch_normalization_1853", 0, 0, {}]]]}, {"class_name": "Activation", "config": {"name": "activation_1835", "trainable": false, "dtype": "float32", "activation": "relu"}, "name": "activation_1835", "inbound_nodes": [[["batch_normalization_1854", 0, 0, {}]]]}, {"class_name": "Concatenate", "config": {"name": "mixed5", "trainable": false, "dtype": "float32", "axis": 3}, "name": "mixed5", "inbound_nodes": [[["activation_1826", 0, 0, {}], ["activation_1829", 0, 0, {}], ["activation_1834", 0, 0, {}], ["activation_1835", 0, 0, {}]]]}, {"class_name": "Conv2D", "config": {"name": "conv2d_1840", "trainable": false, "dtype": "float32", "filters": 160, "kernel_size": [1, 1], "strides": [1, 1], "padding": "same", "data_format": "channels_last", "dilation_rate": [1, 1], "groups": 1, "activation": "linear", "use_bias": false, "kernel_initializer": {"class_name": "GlorotUniform", "config": {"seed": null}}, "bias_initializer": {"class_name": "Zeros", "config": {}}, "kernel_regularizer": null, "bias_regularizer": null, "activity_regularizer": null, "kernel_constraint": null, "bias_constraint": null}, "name": "conv2d_1840", "inbound_nodes": [[["mixed5", 0, 0, {}]]]}, {"class_name": "BatchNormalization", "config": {"name": "batch_normalization_1859", "trainable": false, "dtype": "float32", "axis": [3], "momentum": 0.99, "epsilon": 0.001, "center": true, "scale": false, "beta_initializer": {"class_name": "Zeros", "config": {}}, "gamma_initializer": {"class_name": "Ones", "config": {}}, "moving_mean_initializer": {"class_name": "Zeros", "config": {}}, "moving_variance_initializer": {"class_name": "Ones", "config": {}}, "beta_regularizer": null, "gamma_regularizer": null, "beta_constraint": null, "gamma_constraint": null}, "name": "batch_normalization_1859", "inbound_nodes": [[["conv2d_1840", 0, 0, {}]]]}, {"class_name": "Activation", "config": {"name": "activation_1840", "trainable": false, "dtype": "float32", "activation": "relu"}, "name": "activation_1840", "inbound_nodes": [[["batch_normalization_1859", 0, 0, {}]]]}, {"class_name": "Conv2D", "config": {"name": "conv2d_1841", "trainable": false, "dtype": "float32", "filters": 160, "kernel_size": [7, 1], "strides": [1, 1], "padding": "same", "data_format": "channels_last", "dilation_rate": [1, 1], "groups": 1, "activation": "linear", "use_bias": false, "kernel_initializer": {"class_name": "GlorotUniform", "config": {"seed": null}}, "bias_initializer": {"class_name": "Zeros", "config": {}}, "kernel_regularizer": null, "bias_regularizer": null, "activity_regularizer": null, "kernel_constraint": null, "bias_constraint": null}, "name": "conv2d_1841", "inbound_nodes": [[["activation_1840", 0, 0, {}]]]}, {"class_name": "BatchNormalization", "config": {"name": "batch_normalization_1860", "trainable": false, "dtype": "float32", "axis": [3], "momentum": 0.99, "epsilon": 0.001, "center": true, "scale": false, "beta_initializer": {"class_name": "Zeros", "config": {}}, "gamma_initializer": {"class_name": "Ones", "config": {}}, "moving_mean_initializer": {"class_name": "Zeros", "config": {}}, "moving_variance_initializer": {"class_name": "Ones", "config": {}}, "beta_regularizer": null, "gamma_regularizer": null, "beta_constraint": null, "gamma_constraint": null}, "name": "batch_normalization_1860", "inbound_nodes": [[["conv2d_1841", 0, 0, {}]]]}, {"class_name": "Activation", "config": {"name": "activation_1841", "trainable": false, "dtype": "float32", "activation": "relu"}, "name": "activation_1841", "inbound_nodes": [[["batch_normalization_1860", 0, 0, {}]]]}, {"class_name": "Conv2D", "config": {"name": "conv2d_1837", "trainable": false, "dtype": "float32", "filters": 160, "kernel_size": [1, 1], "strides": [1, 1], "padding": "same", "data_format": "channels_last", "dilation_rate": [1, 1], "groups": 1, "activation": "linear", "use_bias": false, "kernel_initializer": {"class_name": "GlorotUniform", "config": {"seed": null}}, "bias_initializer": {"class_name": "Zeros", "config": {}}, "kernel_regularizer": null, "bias_regularizer": null, "activity_regularizer": null, "kernel_constraint": null, "bias_constraint": null}, "name": "conv2d_1837", "inbound_nodes": [[["mixed5", 0, 0, {}]]]}, {"class_name": "Conv2D", "config": {"name": "conv2d_1842", "trainable": false, "dtype": "float32", "filters": 160, "kernel_size": [1, 7], "strides": [1, 1], "padding": "same", "data_format": "channels_last", "dilation_rate": [1, 1], "groups": 1, "activation": "linear", "use_bias": false, "kernel_initializer": {"class_name": "GlorotUniform", "config": {"seed": null}}, "bias_initializer": {"class_name": "Zeros", "config": {}}, "kernel_regularizer": null, "bias_regularizer": null, "activity_regularizer": null, "kernel_constraint": null, "bias_constraint": null}, "name": "conv2d_1842", "inbound_nodes": [[["activation_1841", 0, 0, {}]]]}, {"class_name": "BatchNormalization", "config": {"name": "batch_normalization_1856", "trainable": false, "dtype": "float32", "axis": [3], "momentum": 0.99, "epsilon": 0.001, "center": true, "scale": false, "beta_initializer": {"class_name": "Zeros", "config": {}}, "gamma_initializer": {"class_name": "Ones", "config": {}}, "moving_mean_initializer": {"class_name": "Zeros", "config": {}}, "moving_variance_initializer": {"class_name": "Ones", "config": {}}, "beta_regularizer": null, "gamma_regularizer": null, "beta_constraint": null, "gamma_constraint": null}, "name": "batch_normalization_1856", "inbound_nodes": [[["conv2d_1837", 0, 0, {}]]]}, {"class_name": "BatchNormalization", "config": {"name": "batch_normalization_1861", "trainable": false, "dtype": "float32", "axis": [3], "momentum": 0.99, "epsilon": 0.001, "center": true, "scale": false, "beta_initializer": {"class_name": "Zeros", "config": {}}, "gamma_initializer": {"class_name": "Ones", "config": {}}, "moving_mean_initializer": {"class_name": "Zeros", "config": {}}, "moving_variance_initializer": {"class_name": "Ones", "config": {}}, "beta_regularizer": null, "gamma_regularizer": null, "beta_constraint": null, "gamma_constraint": null}, "name": "batch_normalization_1861", "inbound_nodes": [[["conv2d_1842", 0, 0, {}]]]}, {"class_name": "Activation", "config": {"name": "activation_1837", "trainable": false, "dtype": "float32", "activation": "relu"}, "name": "activation_1837", "inbound_nodes": [[["batch_normalization_1856", 0, 0, {}]]]}, {"class_name": "Activation", "config": {"name": "activation_1842", "trainable": false, "dtype": "float32", "activation": "relu"}, "name": "activation_1842", "inbound_nodes": [[["batch_normalization_1861", 0, 0, {}]]]}, {"class_name": "Conv2D", "config": {"name": "conv2d_1838", "trainable": false, "dtype": "float32", "filters": 160, "kernel_size": [1, 7], "strides": [1, 1], "padding": "same", "data_format": "channels_last", "dilation_rate": [1, 1], "groups": 1, "activation": "linear", "use_bias": false, "kernel_initializer": {"class_name": "GlorotUniform", "config": {"seed": null}}, "bias_initializer": {"class_name": "Zeros", "config": {}}, "kernel_regularizer": null, "bias_regularizer": null, "activity_regularizer": null, "kernel_constraint": null, "bias_constraint": null}, "name": "conv2d_1838", "inbound_nodes": [[["activation_1837", 0, 0, {}]]]}, {"class_name": "Conv2D", "config": {"name": "conv2d_1843", "trainable": false, "dtype": "float32", "filters": 160, "kernel_size": [7, 1], "strides": [1, 1], "padding": "same", "data_format": "channels_last", "dilation_rate": [1, 1], "groups": 1, "activation": "linear", "use_bias": false, "kernel_initializer": {"class_name": "GlorotUniform", "config": {"seed": null}}, "bias_initializer": {"class_name": "Zeros", "config": {}}, "kernel_regularizer": null, "bias_regularizer": null, "activity_regularizer": null, "kernel_constraint": null, "bias_constraint": null}, "name": "conv2d_1843", "inbound_nodes": [[["activation_1842", 0, 0, {}]]]}, {"class_name": "BatchNormalization", "config": {"name": "batch_normalization_1857", "trainable": false, "dtype": "float32", "axis": [3], "momentum": 0.99, "epsilon": 0.001, "center": true, "scale": false, "beta_initializer": {"class_name": "Zeros", "config": {}}, "gamma_initializer": {"class_name": "Ones", "config": {}}, "moving_mean_initializer": {"class_name": "Zeros", "config": {}}, "moving_variance_initializer": {"class_name": "Ones", "config": {}}, "beta_regularizer": null, "gamma_regularizer": null, "beta_constraint": null, "gamma_constraint": null}, "name": "batch_normalization_1857", "inbound_nodes": [[["conv2d_1838", 0, 0, {}]]]}, {"class_name": "BatchNormalization", "config": {"name": "batch_normalization_1862", "trainable": false, "dtype": "float32", "axis": [3], "momentum": 0.99, "epsilon": 0.001, "center": true, "scale": false, "beta_initializer": {"class_name": "Zeros", "config": {}}, "gamma_initializer": {"class_name": "Ones", "config": {}}, "moving_mean_initializer": {"class_name": "Zeros", "config": {}}, "moving_variance_initializer": {"class_name": "Ones", "config": {}}, "beta_regularizer": null, "gamma_regularizer": null, "beta_constraint": null, "gamma_constraint": null}, "name": "batch_normalization_1862", "inbound_nodes": [[["conv2d_1843", 0, 0, {}]]]}, {"class_name": "Activation", "config": {"name": "activation_1838", "trainable": false, "dtype": "float32", "activation": "relu"}, "name": "activation_1838", "inbound_nodes": [[["batch_normalization_1857", 0, 0, {}]]]}, {"class_name": "Activation", "config": {"name": "activation_1843", "trainable": false, "dtype": "float32", "activation": "relu"}, "name": "activation_1843", "inbound_nodes": [[["batch_normalization_1862", 0, 0, {}]]]}, {"class_name": "AveragePooling2D", "config": {"name": "average_pooling2d_176", "trainable": false, "dtype": "float32", "pool_size": [3, 3], "padding": "same", "strides": [1, 1], "data_format": "channels_last"}, "name": "average_pooling2d_176", "inbound_nodes": [[["mixed5", 0, 0, {}]]]}, {"class_name": "Conv2D", "config": {"name": "conv2d_1836", "trainable": false, "dtype": "float32", "filters": 192, "kernel_size": [1, 1], "strides": [1, 1], "padding": "same", "data_format": "channels_last", "dilation_rate": [1, 1], "groups": 1, "activation": "linear", "use_bias": false, "kernel_initializer": {"class_name": "GlorotUniform", "config": {"seed": null}}, "bias_initializer": {"class_name": "Zeros", "config": {}}, "kernel_regularizer": null, "bias_regularizer": null, "activity_regularizer": null, "kernel_constraint": null, "bias_constraint": null}, "name": "conv2d_1836", "inbound_nodes": [[["mixed5", 0, 0, {}]]]}, {"class_name": "Conv2D", "config": {"name": "conv2d_1839", "trainable": false, "dtype": "float32", "filters": 192, "kernel_size": [7, 1], "strides": [1, 1], "padding": "same", "data_format": "channels_last", "dilation_rate": [1, 1], "groups": 1, "activation": "linear", "use_bias": false, "kernel_initializer": {"class_name": "GlorotUniform", "config": {"seed": null}}, "bias_initializer": {"class_name": "Zeros", "config": {}}, "kernel_regularizer": null, "bias_regularizer": null, "activity_regularizer": null, "kernel_constraint": null, "bias_constraint": null}, "name": "conv2d_1839", "inbound_nodes": [[["activation_1838", 0, 0, {}]]]}, {"class_name": "Conv2D", "config": {"name": "conv2d_1844", "trainable": false, "dtype": "float32", "filters": 192, "kernel_size": [1, 7], "strides": [1, 1], "padding": "same", "data_format": "channels_last", "dilation_rate": [1, 1], "groups": 1, "activation": "linear", "use_bias": false, "kernel_initializer": {"class_name": "GlorotUniform", "config": {"seed": null}}, "bias_initializer": {"class_name": "Zeros", "config": {}}, "kernel_regularizer": null, "bias_regularizer": null, "activity_regularizer": null, "kernel_constraint": null, "bias_constraint": null}, "name": "conv2d_1844", "inbound_nodes": [[["activation_1843", 0, 0, {}]]]}, {"class_name": "Conv2D", "config": {"name": "conv2d_1845", "trainable": false, "dtype": "float32", "filters": 192, "kernel_size": [1, 1], "strides": [1, 1], "padding": "same", "data_format": "channels_last", "dilation_rate": [1, 1], "groups": 1, "activation": "linear", "use_bias": false, "kernel_initializer": {"class_name": "GlorotUniform", "config": {"seed": null}}, "bias_initializer": {"class_name": "Zeros", "config": {}}, "kernel_regularizer": null, "bias_regularizer": null, "activity_regularizer": null, "kernel_constraint": null, "bias_constraint": null}, "name": "conv2d_1845", "inbound_nodes": [[["average_pooling2d_176", 0, 0, {}]]]}, {"class_name": "BatchNormalization", "config": {"name": "batch_normalization_1855", "trainable": false, "dtype": "float32", "axis": [3], "momentum": 0.99, "epsilon": 0.001, "center": true, "scale": false, "beta_initializer": {"class_name": "Zeros", "config": {}}, "gamma_initializer": {"class_name": "Ones", "config": {}}, "moving_mean_initializer": {"class_name": "Zeros", "config": {}}, "moving_variance_initializer": {"class_name": "Ones", "config": {}}, "beta_regularizer": null, "gamma_regularizer": null, "beta_constraint": null, "gamma_constraint": null}, "name": "batch_normalization_1855", "inbound_nodes": [[["conv2d_1836", 0, 0, {}]]]}, {"class_name": "BatchNormalization", "config": {"name": "batch_normalization_1858", "trainable": false, "dtype": "float32", "axis": [3], "momentum": 0.99, "epsilon": 0.001, "center": true, "scale": false, "beta_initializer": {"class_name": "Zeros", "config": {}}, "gamma_initializer": {"class_name": "Ones", "config": {}}, "moving_mean_initializer": {"class_name": "Zeros", "config": {}}, "moving_variance_initializer": {"class_name": "Ones", "config": {}}, "beta_regularizer": null, "gamma_regularizer": null, "beta_constraint": null, "gamma_constraint": null}, "name": "batch_normalization_1858", "inbound_nodes": [[["conv2d_1839", 0, 0, {}]]]}, {"class_name": "BatchNormalization", "config": {"name": "batch_normalization_1863", "trainable": false, "dtype": "float32", "axis": [3], "momentum": 0.99, "epsilon": 0.001, "center": true, "scale": false, "beta_initializer": {"class_name": "Zeros", "config": {}}, "gamma_initializer": {"class_name": "Ones", "config": {}}, "moving_mean_initializer": {"class_name": "Zeros", "config": {}}, "moving_variance_initializer": {"class_name": "Ones", "config": {}}, "beta_regularizer": null, "gamma_regularizer": null, "beta_constraint": null, "gamma_constraint": null}, "name": "batch_normalization_1863", "inbound_nodes": [[["conv2d_1844", 0, 0, {}]]]}, {"class_name": "BatchNormalization", "config": {"name": "batch_normalization_1864", "trainable": false, "dtype": "float32", "axis": [3], "momentum": 0.99, "epsilon": 0.001, "center": true, "scale": false, "beta_initializer": {"class_name": "Zeros", "config": {}}, "gamma_initializer": {"class_name": "Ones", "config": {}}, "moving_mean_initializer": {"class_name": "Zeros", "config": {}}, "moving_variance_initializer": {"class_name": "Ones", "config": {}}, "beta_regularizer": null, "gamma_regularizer": null, "beta_constraint": null, "gamma_constraint": null}, "name": "batch_normalization_1864", "inbound_nodes": [[["conv2d_1845", 0, 0, {}]]]}, {"class_name": "Activation", "config": {"name": "activation_1836", "trainable": false, "dtype": "float32", "activation": "relu"}, "name": "activation_1836", "inbound_nodes": [[["batch_normalization_1855", 0, 0, {}]]]}, {"class_name": "Activation", "config": {"name": "activation_1839", "trainable": false, "dtype": "float32", "activation": "relu"}, "name": "activation_1839", "inbound_nodes": [[["batch_normalization_1858", 0, 0, {}]]]}, {"class_name": "Activation", "config": {"name": "activation_1844", "trainable": false, "dtype": "float32", "activation": "relu"}, "name": "activation_1844", "inbound_nodes": [[["batch_normalization_1863", 0, 0, {}]]]}, {"class_name": "Activation", "config": {"name": "activation_1845", "trainable": false, "dtype": "float32", "activation": "relu"}, "name": "activation_1845", "inbound_nodes": [[["batch_normalization_1864", 0, 0, {}]]]}, {"class_name": "Concatenate", "config": {"name": "mixed6", "trainable": false, "dtype": "float32", "axis": 3}, "name": "mixed6", "inbound_nodes": [[["activation_1836", 0, 0, {}], ["activation_1839", 0, 0, {}], ["activation_1844", 0, 0, {}], ["activation_1845", 0, 0, {}]]]}, {"class_name": "Conv2D", "config": {"name": "conv2d_1850", "trainable": false, "dtype": "float32", "filters": 192, "kernel_size": [1, 1], "strides": [1, 1], "padding": "same", "data_format": "channels_last", "dilation_rate": [1, 1], "groups": 1, "activation": "linear", "use_bias": false, "kernel_initializer": {"class_name": "GlorotUniform", "config": {"seed": null}}, "bias_initializer": {"class_name": "Zeros", "config": {}}, "kernel_regularizer": null, "bias_regularizer": null, "activity_regularizer": null, "kernel_constraint": null, "bias_constraint": null}, "name": "conv2d_1850", "inbound_nodes": [[["mixed6", 0, 0, {}]]]}, {"class_name": "BatchNormalization", "config": {"name": "batch_normalization_1869", "trainable": false, "dtype": "float32", "axis": [3], "momentum": 0.99, "epsilon": 0.001, "center": true, "scale": false, "beta_initializer": {"class_name": "Zeros", "config": {}}, "gamma_initializer": {"class_name": "Ones", "config": {}}, "moving_mean_initializer": {"class_name": "Zeros", "config": {}}, "moving_variance_initializer": {"class_name": "Ones", "config": {}}, "beta_regularizer": null, "gamma_regularizer": null, "beta_constraint": null, "gamma_constraint": null}, "name": "batch_normalization_1869", "inbound_nodes": [[["conv2d_1850", 0, 0, {}]]]}, {"class_name": "Activation", "config": {"name": "activation_1850", "trainable": false, "dtype": "float32", "activation": "relu"}, "name": "activation_1850", "inbound_nodes": [[["batch_normalization_1869", 0, 0, {}]]]}, {"class_name": "Conv2D", "config": {"name": "conv2d_1851", "trainable": false, "dtype": "float32", "filters": 192, "kernel_size": [7, 1], "strides": [1, 1], "padding": "same", "data_format": "channels_last", "dilation_rate": [1, 1], "groups": 1, "activation": "linear", "use_bias": false, "kernel_initializer": {"class_name": "GlorotUniform", "config": {"seed": null}}, "bias_initializer": {"class_name": "Zeros", "config": {}}, "kernel_regularizer": null, "bias_regularizer": null, "activity_regularizer": null, "kernel_constraint": null, "bias_constraint": null}, "name": "conv2d_1851", "inbound_nodes": [[["activation_1850", 0, 0, {}]]]}, {"class_name": "BatchNormalization", "config": {"name": "batch_normalization_1870", "trainable": false, "dtype": "float32", "axis": [3], "momentum": 0.99, "epsilon": 0.001, "center": true, "scale": false, "beta_initializer": {"class_name": "Zeros", "config": {}}, "gamma_initializer": {"class_name": "Ones", "config": {}}, "moving_mean_initializer": {"class_name": "Zeros", "config": {}}, "moving_variance_initializer": {"class_name": "Ones", "config": {}}, "beta_regularizer": null, "gamma_regularizer": null, "beta_constraint": null, "gamma_constraint": null}, "name": "batch_normalization_1870", "inbound_nodes": [[["conv2d_1851", 0, 0, {}]]]}, {"class_name": "Activation", "config": {"name": "activation_1851", "trainable": false, "dtype": "float32", "activation": "relu"}, "name": "activation_1851", "inbound_nodes": [[["batch_normalization_1870", 0, 0, {}]]]}, {"class_name": "Conv2D", "config": {"name": "conv2d_1847", "trainable": false, "dtype": "float32", "filters": 192, "kernel_size": [1, 1], "strides": [1, 1], "padding": "same", "data_format": "channels_last", "dilation_rate": [1, 1], "groups": 1, "activation": "linear", "use_bias": false, "kernel_initializer": {"class_name": "GlorotUniform", "config": {"seed": null}}, "bias_initializer": {"class_name": "Zeros", "config": {}}, "kernel_regularizer": null, "bias_regularizer": null, "activity_regularizer": null, "kernel_constraint": null, "bias_constraint": null}, "name": "conv2d_1847", "inbound_nodes": [[["mixed6", 0, 0, {}]]]}, {"class_name": "Conv2D", "config": {"name": "conv2d_1852", "trainable": false, "dtype": "float32", "filters": 192, "kernel_size": [1, 7], "strides": [1, 1], "padding": "same", "data_format": "channels_last", "dilation_rate": [1, 1], "groups": 1, "activation": "linear", "use_bias": false, "kernel_initializer": {"class_name": "GlorotUniform", "config": {"seed": null}}, "bias_initializer": {"class_name": "Zeros", "config": {}}, "kernel_regularizer": null, "bias_regularizer": null, "activity_regularizer": null, "kernel_constraint": null, "bias_constraint": null}, "name": "conv2d_1852", "inbound_nodes": [[["activation_1851", 0, 0, {}]]]}, {"class_name": "BatchNormalization", "config": {"name": "batch_normalization_1866", "trainable": false, "dtype": "float32", "axis": [3], "momentum": 0.99, "epsilon": 0.001, "center": true, "scale": false, "beta_initializer": {"class_name": "Zeros", "config": {}}, "gamma_initializer": {"class_name": "Ones", "config": {}}, "moving_mean_initializer": {"class_name": "Zeros", "config": {}}, "moving_variance_initializer": {"class_name": "Ones", "config": {}}, "beta_regularizer": null, "gamma_regularizer": null, "beta_constraint": null, "gamma_constraint": null}, "name": "batch_normalization_1866", "inbound_nodes": [[["conv2d_1847", 0, 0, {}]]]}, {"class_name": "BatchNormalization", "config": {"name": "batch_normalization_1871", "trainable": false, "dtype": "float32", "axis": [3], "momentum": 0.99, "epsilon": 0.001, "center": true, "scale": false, "beta_initializer": {"class_name": "Zeros", "config": {}}, "gamma_initializer": {"class_name": "Ones", "config": {}}, "moving_mean_initializer": {"class_name": "Zeros", "config": {}}, "moving_variance_initializer": {"class_name": "Ones", "config": {}}, "beta_regularizer": null, "gamma_regularizer": null, "beta_constraint": null, "gamma_constraint": null}, "name": "batch_normalization_1871", "inbound_nodes": [[["conv2d_1852", 0, 0, {}]]]}, {"class_name": "Activation", "config": {"name": "activation_1847", "trainable": false, "dtype": "float32", "activation": "relu"}, "name": "activation_1847", "inbound_nodes": [[["batch_normalization_1866", 0, 0, {}]]]}, {"class_name": "Activation", "config": {"name": "activation_1852", "trainable": false, "dtype": "float32", "activation": "relu"}, "name": "activation_1852", "inbound_nodes": [[["batch_normalization_1871", 0, 0, {}]]]}, {"class_name": "Conv2D", "config": {"name": "conv2d_1848", "trainable": false, "dtype": "float32", "filters": 192, "kernel_size": [1, 7], "strides": [1, 1], "padding": "same", "data_format": "channels_last", "dilation_rate": [1, 1], "groups": 1, "activation": "linear", "use_bias": false, "kernel_initializer": {"class_name": "GlorotUniform", "config": {"seed": null}}, "bias_initializer": {"class_name": "Zeros", "config": {}}, "kernel_regularizer": null, "bias_regularizer": null, "activity_regularizer": null, "kernel_constraint": null, "bias_constraint": null}, "name": "conv2d_1848", "inbound_nodes": [[["activation_1847", 0, 0, {}]]]}, {"class_name": "Conv2D", "config": {"name": "conv2d_1853", "trainable": false, "dtype": "float32", "filters": 192, "kernel_size": [7, 1], "strides": [1, 1], "padding": "same", "data_format": "channels_last", "dilation_rate": [1, 1], "groups": 1, "activation": "linear", "use_bias": false, "kernel_initializer": {"class_name": "GlorotUniform", "config": {"seed": null}}, "bias_initializer": {"class_name": "Zeros", "config": {}}, "kernel_regularizer": null, "bias_regularizer": null, "activity_regularizer": null, "kernel_constraint": null, "bias_constraint": null}, "name": "conv2d_1853", "inbound_nodes": [[["activation_1852", 0, 0, {}]]]}, {"class_name": "BatchNormalization", "config": {"name": "batch_normalization_1867", "trainable": false, "dtype": "float32", "axis": [3], "momentum": 0.99, "epsilon": 0.001, "center": true, "scale": false, "beta_initializer": {"class_name": "Zeros", "config": {}}, "gamma_initializer": {"class_name": "Ones", "config": {}}, "moving_mean_initializer": {"class_name": "Zeros", "config": {}}, "moving_variance_initializer": {"class_name": "Ones", "config": {}}, "beta_regularizer": null, "gamma_regularizer": null, "beta_constraint": null, "gamma_constraint": null}, "name": "batch_normalization_1867", "inbound_nodes": [[["conv2d_1848", 0, 0, {}]]]}, {"class_name": "BatchNormalization", "config": {"name": "batch_normalization_1872", "trainable": false, "dtype": "float32", "axis": [3], "momentum": 0.99, "epsilon": 0.001, "center": true, "scale": false, "beta_initializer": {"class_name": "Zeros", "config": {}}, "gamma_initializer": {"class_name": "Ones", "config": {}}, "moving_mean_initializer": {"class_name": "Zeros", "config": {}}, "moving_variance_initializer": {"class_name": "Ones", "config": {}}, "beta_regularizer": null, "gamma_regularizer": null, "beta_constraint": null, "gamma_constraint": null}, "name": "batch_normalization_1872", "inbound_nodes": [[["conv2d_1853", 0, 0, {}]]]}, {"class_name": "Activation", "config": {"name": "activation_1848", "trainable": false, "dtype": "float32", "activation": "relu"}, "name": "activation_1848", "inbound_nodes": [[["batch_normalization_1867", 0, 0, {}]]]}, {"class_name": "Activation", "config": {"name": "activation_1853", "trainable": false, "dtype": "float32", "activation": "relu"}, "name": "activation_1853", "inbound_nodes": [[["batch_normalization_1872", 0, 0, {}]]]}, {"class_name": "AveragePooling2D", "config": {"name": "average_pooling2d_177", "trainable": false, "dtype": "float32", "pool_size": [3, 3], "padding": "same", "strides": [1, 1], "data_format": "channels_last"}, "name": "average_pooling2d_177", "inbound_nodes": [[["mixed6", 0, 0, {}]]]}, {"class_name": "Conv2D", "config": {"name": "conv2d_1846", "trainable": false, "dtype": "float32", "filters": 192, "kernel_size": [1, 1], "strides": [1, 1], "padding": "same", "data_format": "channels_last", "dilation_rate": [1, 1], "groups": 1, "activation": "linear", "use_bias": false, "kernel_initializer": {"class_name": "GlorotUniform", "config": {"seed": null}}, "bias_initializer": {"class_name": "Zeros", "config": {}}, "kernel_regularizer": null, "bias_regularizer": null, "activity_regularizer": null, "kernel_constraint": null, "bias_constraint": null}, "name": "conv2d_1846", "inbound_nodes": [[["mixed6", 0, 0, {}]]]}, {"class_name": "Conv2D", "config": {"name": "conv2d_1849", "trainable": false, "dtype": "float32", "filters": 192, "kernel_size": [7, 1], "strides": [1, 1], "padding": "same", "data_format": "channels_last", "dilation_rate": [1, 1], "groups": 1, "activation": "linear", "use_bias": false, "kernel_initializer": {"class_name": "GlorotUniform", "config": {"seed": null}}, "bias_initializer": {"class_name": "Zeros", "config": {}}, "kernel_regularizer": null, "bias_regularizer": null, "activity_regularizer": null, "kernel_constraint": null, "bias_constraint": null}, "name": "conv2d_1849", "inbound_nodes": [[["activation_1848", 0, 0, {}]]]}, {"class_name": "Conv2D", "config": {"name": "conv2d_1854", "trainable": false, "dtype": "float32", "filters": 192, "kernel_size": [1, 7], "strides": [1, 1], "padding": "same", "data_format": "channels_last", "dilation_rate": [1, 1], "groups": 1, "activation": "linear", "use_bias": false, "kernel_initializer": {"class_name": "GlorotUniform", "config": {"seed": null}}, "bias_initializer": {"class_name": "Zeros", "config": {}}, "kernel_regularizer": null, "bias_regularizer": null, "activity_regularizer": null, "kernel_constraint": null, "bias_constraint": null}, "name": "conv2d_1854", "inbound_nodes": [[["activation_1853", 0, 0, {}]]]}, {"class_name": "Conv2D", "config": {"name": "conv2d_1855", "trainable": false, "dtype": "float32", "filters": 192, "kernel_size": [1, 1], "strides": [1, 1], "padding": "same", "data_format": "channels_last", "dilation_rate": [1, 1], "groups": 1, "activation": "linear", "use_bias": false, "kernel_initializer": {"class_name": "GlorotUniform", "config": {"seed": null}}, "bias_initializer": {"class_name": "Zeros", "config": {}}, "kernel_regularizer": null, "bias_regularizer": null, "activity_regularizer": null, "kernel_constraint": null, "bias_constraint": null}, "name": "conv2d_1855", "inbound_nodes": [[["average_pooling2d_177", 0, 0, {}]]]}, {"class_name": "BatchNormalization", "config": {"name": "batch_normalization_1865", "trainable": false, "dtype": "float32", "axis": [3], "momentum": 0.99, "epsilon": 0.001, "center": true, "scale": false, "beta_initializer": {"class_name": "Zeros", "config": {}}, "gamma_initializer": {"class_name": "Ones", "config": {}}, "moving_mean_initializer": {"class_name": "Zeros", "config": {}}, "moving_variance_initializer": {"class_name": "Ones", "config": {}}, "beta_regularizer": null, "gamma_regularizer": null, "beta_constraint": null, "gamma_constraint": null}, "name": "batch_normalization_1865", "inbound_nodes": [[["conv2d_1846", 0, 0, {}]]]}, {"class_name": "BatchNormalization", "config": {"name": "batch_normalization_1868", "trainable": false, "dtype": "float32", "axis": [3], "momentum": 0.99, "epsilon": 0.001, "center": true, "scale": false, "beta_initializer": {"class_name": "Zeros", "config": {}}, "gamma_initializer": {"class_name": "Ones", "config": {}}, "moving_mean_initializer": {"class_name": "Zeros", "config": {}}, "moving_variance_initializer": {"class_name": "Ones", "config": {}}, "beta_regularizer": null, "gamma_regularizer": null, "beta_constraint": null, "gamma_constraint": null}, "name": "batch_normalization_1868", "inbound_nodes": [[["conv2d_1849", 0, 0, {}]]]}, {"class_name": "BatchNormalization", "config": {"name": "batch_normalization_1873", "trainable": false, "dtype": "float32", "axis": [3], "momentum": 0.99, "epsilon": 0.001, "center": true, "scale": false, "beta_initializer": {"class_name": "Zeros", "config": {}}, "gamma_initializer": {"class_name": "Ones", "config": {}}, "moving_mean_initializer": {"class_name": "Zeros", "config": {}}, "moving_variance_initializer": {"class_name": "Ones", "config": {}}, "beta_regularizer": null, "gamma_regularizer": null, "beta_constraint": null, "gamma_constraint": null}, "name": "batch_normalization_1873", "inbound_nodes": [[["conv2d_1854", 0, 0, {}]]]}, {"class_name": "BatchNormalization", "config": {"name": "batch_normalization_1874", "trainable": false, "dtype": "float32", "axis": [3], "momentum": 0.99, "epsilon": 0.001, "center": true, "scale": false, "beta_initializer": {"class_name": "Zeros", "config": {}}, "gamma_initializer": {"class_name": "Ones", "config": {}}, "moving_mean_initializer": {"class_name": "Zeros", "config": {}}, "moving_variance_initializer": {"class_name": "Ones", "config": {}}, "beta_regularizer": null, "gamma_regularizer": null, "beta_constraint": null, "gamma_constraint": null}, "name": "batch_normalization_1874", "inbound_nodes": [[["conv2d_1855", 0, 0, {}]]]}, {"class_name": "Activation", "config": {"name": "activation_1846", "trainable": false, "dtype": "float32", "activation": "relu"}, "name": "activation_1846", "inbound_nodes": [[["batch_normalization_1865", 0, 0, {}]]]}, {"class_name": "Activation", "config": {"name": "activation_1849", "trainable": false, "dtype": "float32", "activation": "relu"}, "name": "activation_1849", "inbound_nodes": [[["batch_normalization_1868", 0, 0, {}]]]}, {"class_name": "Activation", "config": {"name": "activation_1854", "trainable": false, "dtype": "float32", "activation": "relu"}, "name": "activation_1854", "inbound_nodes": [[["batch_normalization_1873", 0, 0, {}]]]}, {"class_name": "Activation", "config": {"name": "activation_1855", "trainable": false, "dtype": "float32", "activation": "relu"}, "name": "activation_1855", "inbound_nodes": [[["batch_normalization_1874", 0, 0, {}]]]}, {"class_name": "Concatenate", "config": {"name": "mixed7", "trainable": false, "dtype": "float32", "axis": 3}, "name": "mixed7", "inbound_nodes": [[["activation_1846", 0, 0, {}], ["activation_1849", 0, 0, {}], ["activation_1854", 0, 0, {}], ["activation_1855", 0, 0, {}]]]}, {"class_name": "Conv2D", "config": {"name": "conv2d_1858", "trainable": false, "dtype": "float32", "filters": 192, "kernel_size": [1, 1], "strides": [1, 1], "padding": "same", "data_format": "channels_last", "dilation_rate": [1, 1], "groups": 1, "activation": "linear", "use_bias": false, "kernel_initializer": {"class_name": "GlorotUniform", "config": {"seed": null}}, "bias_initializer": {"class_name": "Zeros", "config": {}}, "kernel_regularizer": null, "bias_regularizer": null, "activity_regularizer": null, "kernel_constraint": null, "bias_constraint": null}, "name": "conv2d_1858", "inbound_nodes": [[["mixed7", 0, 0, {}]]]}, {"class_name": "BatchNormalization", "config": {"name": "batch_normalization_1877", "trainable": false, "dtype": "float32", "axis": [3], "momentum": 0.99, "epsilon": 0.001, "center": true, "scale": false, "beta_initializer": {"class_name": "Zeros", "config": {}}, "gamma_initializer": {"class_name": "Ones", "config": {}}, "moving_mean_initializer": {"class_name": "Zeros", "config": {}}, "moving_variance_initializer": {"class_name": "Ones", "config": {}}, "beta_regularizer": null, "gamma_regularizer": null, "beta_constraint": null, "gamma_constraint": null}, "name": "batch_normalization_1877", "inbound_nodes": [[["conv2d_1858", 0, 0, {}]]]}, {"class_name": "Activation", "config": {"name": "activation_1858", "trainable": false, "dtype": "float32", "activation": "relu"}, "name": "activation_1858", "inbound_nodes": [[["batch_normalization_1877", 0, 0, {}]]]}, {"class_name": "Conv2D", "config": {"name": "conv2d_1859", "trainable": false, "dtype": "float32", "filters": 192, "kernel_size": [1, 7], "strides": [1, 1], "padding": "same", "data_format": "channels_last", "dilation_rate": [1, 1], "groups": 1, "activation": "linear", "use_bias": false, "kernel_initializer": {"class_name": "GlorotUniform", "config": {"seed": null}}, "bias_initializer": {"class_name": "Zeros", "config": {}}, "kernel_regularizer": null, "bias_regularizer": null, "activity_regularizer": null, "kernel_constraint": null, "bias_constraint": null}, "name": "conv2d_1859", "inbound_nodes": [[["activation_1858", 0, 0, {}]]]}, {"class_name": "BatchNormalization", "config": {"name": "batch_normalization_1878", "trainable": false, "dtype": "float32", "axis": [3], "momentum": 0.99, "epsilon": 0.001, "center": true, "scale": false, "beta_initializer": {"class_name": "Zeros", "config": {}}, "gamma_initializer": {"class_name": "Ones", "config": {}}, "moving_mean_initializer": {"class_name": "Zeros", "config": {}}, "moving_variance_initializer": {"class_name": "Ones", "config": {}}, "beta_regularizer": null, "gamma_regularizer": null, "beta_constraint": null, "gamma_constraint": null}, "name": "batch_normalization_1878", "inbound_nodes": [[["conv2d_1859", 0, 0, {}]]]}, {"class_name": "Activation", "config": {"name": "activation_1859", "trainable": false, "dtype": "float32", "activation": "relu"}, "name": "activation_1859", "inbound_nodes": [[["batch_normalization_1878", 0, 0, {}]]]}, {"class_name": "Conv2D", "config": {"name": "conv2d_1856", "trainable": false, "dtype": "float32", "filters": 192, "kernel_size": [1, 1], "strides": [1, 1], "padding": "same", "data_format": "channels_last", "dilation_rate": [1, 1], "groups": 1, "activation": "linear", "use_bias": false, "kernel_initializer": {"class_name": "GlorotUniform", "config": {"seed": null}}, "bias_initializer": {"class_name": "Zeros", "config": {}}, "kernel_regularizer": null, "bias_regularizer": null, "activity_regularizer": null, "kernel_constraint": null, "bias_constraint": null}, "name": "conv2d_1856", "inbound_nodes": [[["mixed7", 0, 0, {}]]]}, {"class_name": "Conv2D", "config": {"name": "conv2d_1860", "trainable": false, "dtype": "float32", "filters": 192, "kernel_size": [7, 1], "strides": [1, 1], "padding": "same", "data_format": "channels_last", "dilation_rate": [1, 1], "groups": 1, "activation": "linear", "use_bias": false, "kernel_initializer": {"class_name": "GlorotUniform", "config": {"seed": null}}, "bias_initializer": {"class_name": "Zeros", "config": {}}, "kernel_regularizer": null, "bias_regularizer": null, "activity_regularizer": null, "kernel_constraint": null, "bias_constraint": null}, "name": "conv2d_1860", "inbound_nodes": [[["activation_1859", 0, 0, {}]]]}, {"class_name": "BatchNormalization", "config": {"name": "batch_normalization_1875", "trainable": false, "dtype": "float32", "axis": [3], "momentum": 0.99, "epsilon": 0.001, "center": true, "scale": false, "beta_initializer": {"class_name": "Zeros", "config": {}}, "gamma_initializer": {"class_name": "Ones", "config": {}}, "moving_mean_initializer": {"class_name": "Zeros", "config": {}}, "moving_variance_initializer": {"class_name": "Ones", "config": {}}, "beta_regularizer": null, "gamma_regularizer": null, "beta_constraint": null, "gamma_constraint": null}, "name": "batch_normalization_1875", "inbound_nodes": [[["conv2d_1856", 0, 0, {}]]]}, {"class_name": "BatchNormalization", "config": {"name": "batch_normalization_1879", "trainable": false, "dtype": "float32", "axis": [3], "momentum": 0.99, "epsilon": 0.001, "center": true, "scale": false, "beta_initializer": {"class_name": "Zeros", "config": {}}, "gamma_initializer": {"class_name": "Ones", "config": {}}, "moving_mean_initializer": {"class_name": "Zeros", "config": {}}, "moving_variance_initializer": {"class_name": "Ones", "config": {}}, "beta_regularizer": null, "gamma_regularizer": null, "beta_constraint": null, "gamma_constraint": null}, "name": "batch_normalization_1879", "inbound_nodes": [[["conv2d_1860", 0, 0, {}]]]}, {"class_name": "Activation", "config": {"name": "activation_1856", "trainable": false, "dtype": "float32", "activation": "relu"}, "name": "activation_1856", "inbound_nodes": [[["batch_normalization_1875", 0, 0, {}]]]}, {"class_name": "Activation", "config": {"name": "activation_1860", "trainable": false, "dtype": "float32", "activation": "relu"}, "name": "activation_1860", "inbound_nodes": [[["batch_normalization_1879", 0, 0, {}]]]}, {"class_name": "Conv2D", "config": {"name": "conv2d_1857", "trainable": false, "dtype": "float32", "filters": 320, "kernel_size": [3, 3], "strides": [2, 2], "padding": "valid", "data_format": "channels_last", "dilation_rate": [1, 1], "groups": 1, "activation": "linear", "use_bias": false, "kernel_initializer": {"class_name": "GlorotUniform", "config": {"seed": null}}, "bias_initializer": {"class_name": "Zeros", "config": {}}, "kernel_regularizer": null, "bias_regularizer": null, "activity_regularizer": null, "kernel_constraint": null, "bias_constraint": null}, "name": "conv2d_1857", "inbound_nodes": [[["activation_1856", 0, 0, {}]]]}, {"class_name": "Conv2D", "config": {"name": "conv2d_1861", "trainable": false, "dtype": "float32", "filters": 192, "kernel_size": [3, 3], "strides": [2, 2], "padding": "valid", "data_format": "channels_last", "dilation_rate": [1, 1], "groups": 1, "activation": "linear", "use_bias": false, "kernel_initializer": {"class_name": "GlorotUniform", "config": {"seed": null}}, "bias_initializer": {"class_name": "Zeros", "config": {}}, "kernel_regularizer": null, "bias_regularizer": null, "activity_regularizer": null, "kernel_constraint": null, "bias_constraint": null}, "name": "conv2d_1861", "inbound_nodes": [[["activation_1860", 0, 0, {}]]]}, {"class_name": "BatchNormalization", "config": {"name": "batch_normalization_1876", "trainable": false, "dtype": "float32", "axis": [3], "momentum": 0.99, "epsilon": 0.001, "center": true, "scale": false, "beta_initializer": {"class_name": "Zeros", "config": {}}, "gamma_initializer": {"class_name": "Ones", "config": {}}, "moving_mean_initializer": {"class_name": "Zeros", "config": {}}, "moving_variance_initializer": {"class_name": "Ones", "config": {}}, "beta_regularizer": null, "gamma_regularizer": null, "beta_constraint": null, "gamma_constraint": null}, "name": "batch_normalization_1876", "inbound_nodes": [[["conv2d_1857", 0, 0, {}]]]}, {"class_name": "BatchNormalization", "config": {"name": "batch_normalization_1880", "trainable": false, "dtype": "float32", "axis": [3], "momentum": 0.99, "epsilon": 0.001, "center": true, "scale": false, "beta_initializer": {"class_name": "Zeros", "config": {}}, "gamma_initializer": {"class_name": "Ones", "config": {}}, "moving_mean_initializer": {"class_name": "Zeros", "config": {}}, "moving_variance_initializer": {"class_name": "Ones", "config": {}}, "beta_regularizer": null, "gamma_regularizer": null, "beta_constraint": null, "gamma_constraint": null}, "name": "batch_normalization_1880", "inbound_nodes": [[["conv2d_1861", 0, 0, {}]]]}, {"class_name": "Activation", "config": {"name": "activation_1857", "trainable": false, "dtype": "float32", "activation": "relu"}, "name": "activation_1857", "inbound_nodes": [[["batch_normalization_1876", 0, 0, {}]]]}, {"class_name": "Activation", "config": {"name": "activation_1861", "trainable": false, "dtype": "float32", "activation": "relu"}, "name": "activation_1861", "inbound_nodes": [[["batch_normalization_1880", 0, 0, {}]]]}, {"class_name": "MaxPooling2D", "config": {"name": "max_pooling2d_79", "trainable": false, "dtype": "float32", "pool_size": [3, 3], "padding": "valid", "strides": [2, 2], "data_format": "channels_last"}, "name": "max_pooling2d_79", "inbound_nodes": [[["mixed7", 0, 0, {}]]]}, {"class_name": "Concatenate", "config": {"name": "mixed8", "trainable": false, "dtype": "float32", "axis": 3}, "name": "mixed8", "inbound_nodes": [[["activation_1857", 0, 0, {}], ["activation_1861", 0, 0, {}], ["max_pooling2d_79", 0, 0, {}]]]}, {"class_name": "Conv2D", "config": {"name": "conv2d_1866", "trainable": false, "dtype": "float32", "filters": 448, "kernel_size": [1, 1], "strides": [1, 1], "padding": "same", "data_format": "channels_last", "dilation_rate": [1, 1], "groups": 1, "activation": "linear", "use_bias": false, "kernel_initializer": {"class_name": "GlorotUniform", "config": {"seed": null}}, "bias_initializer": {"class_name": "Zeros", "config": {}}, "kernel_regularizer": null, "bias_regularizer": null, "activity_regularizer": null, "kernel_constraint": null, "bias_constraint": null}, "name": "conv2d_1866", "inbound_nodes": [[["mixed8", 0, 0, {}]]]}, {"class_name": "BatchNormalization", "config": {"name": "batch_normalization_1885", "trainable": false, "dtype": "float32", "axis": [3], "momentum": 0.99, "epsilon": 0.001, "center": true, "scale": false, "beta_initializer": {"class_name": "Zeros", "config": {}}, "gamma_initializer": {"class_name": "Ones", "config": {}}, "moving_mean_initializer": {"class_name": "Zeros", "config": {}}, "moving_variance_initializer": {"class_name": "Ones", "config": {}}, "beta_regularizer": null, "gamma_regularizer": null, "beta_constraint": null, "gamma_constraint": null}, "name": "batch_normalization_1885", "inbound_nodes": [[["conv2d_1866", 0, 0, {}]]]}, {"class_name": "Activation", "config": {"name": "activation_1866", "trainable": false, "dtype": "float32", "activation": "relu"}, "name": "activation_1866", "inbound_nodes": [[["batch_normalization_1885", 0, 0, {}]]]}, {"class_name": "Conv2D", "config": {"name": "conv2d_1863", "trainable": false, "dtype": "float32", "filters": 384, "kernel_size": [1, 1], "strides": [1, 1], "padding": "same", "data_format": "channels_last", "dilation_rate": [1, 1], "groups": 1, "activation": "linear", "use_bias": false, "kernel_initializer": {"class_name": "GlorotUniform", "config": {"seed": null}}, "bias_initializer": {"class_name": "Zeros", "config": {}}, "kernel_regularizer": null, "bias_regularizer": null, "activity_regularizer": null, "kernel_constraint": null, "bias_constraint": null}, "name": "conv2d_1863", "inbound_nodes": [[["mixed8", 0, 0, {}]]]}, {"class_name": "Conv2D", "config": {"name": "conv2d_1867", "trainable": false, "dtype": "float32", "filters": 384, "kernel_size": [3, 3], "strides": [1, 1], "padding": "same", "data_format": "channels_last", "dilation_rate": [1, 1], "groups": 1, "activation": "linear", "use_bias": false, "kernel_initializer": {"class_name": "GlorotUniform", "config": {"seed": null}}, "bias_initializer": {"class_name": "Zeros", "config": {}}, "kernel_regularizer": null, "bias_regularizer": null, "activity_regularizer": null, "kernel_constraint": null, "bias_constraint": null}, "name": "conv2d_1867", "inbound_nodes": [[["activation_1866", 0, 0, {}]]]}, {"class_name": "BatchNormalization", "config": {"name": "batch_normalization_1882", "trainable": false, "dtype": "float32", "axis": [3], "momentum": 0.99, "epsilon": 0.001, "center": true, "scale": false, "beta_initializer": {"class_name": "Zeros", "config": {}}, "gamma_initializer": {"class_name": "Ones", "config": {}}, "moving_mean_initializer": {"class_name": "Zeros", "config": {}}, "moving_variance_initializer": {"class_name": "Ones", "config": {}}, "beta_regularizer": null, "gamma_regularizer": null, "beta_constraint": null, "gamma_constraint": null}, "name": "batch_normalization_1882", "inbound_nodes": [[["conv2d_1863", 0, 0, {}]]]}, {"class_name": "BatchNormalization", "config": {"name": "batch_normalization_1886", "trainable": false, "dtype": "float32", "axis": [3], "momentum": 0.99, "epsilon": 0.001, "center": true, "scale": false, "beta_initializer": {"class_name": "Zeros", "config": {}}, "gamma_initializer": {"class_name": "Ones", "config": {}}, "moving_mean_initializer": {"class_name": "Zeros", "config": {}}, "moving_variance_initializer": {"class_name": "Ones", "config": {}}, "beta_regularizer": null, "gamma_regularizer": null, "beta_constraint": null, "gamma_constraint": null}, "name": "batch_normalization_1886", "inbound_nodes": [[["conv2d_1867", 0, 0, {}]]]}, {"class_name": "Activation", "config": {"name": "activation_1863", "trainable": false, "dtype": "float32", "activation": "relu"}, "name": "activation_1863", "inbound_nodes": [[["batch_normalization_1882", 0, 0, {}]]]}, {"class_name": "Activation", "config": {"name": "activation_1867", "trainable": false, "dtype": "float32", "activation": "relu"}, "name": "activation_1867", "inbound_nodes": [[["batch_normalization_1886", 0, 0, {}]]]}, {"class_name": "Conv2D", "config": {"name": "conv2d_1864", "trainable": false, "dtype": "float32", "filters": 384, "kernel_size": [1, 3], "strides": [1, 1], "padding": "same", "data_format": "channels_last", "dilation_rate": [1, 1], "groups": 1, "activation": "linear", "use_bias": false, "kernel_initializer": {"class_name": "GlorotUniform", "config": {"seed": null}}, "bias_initializer": {"class_name": "Zeros", "config": {}}, "kernel_regularizer": null, "bias_regularizer": null, "activity_regularizer": null, "kernel_constraint": null, "bias_constraint": null}, "name": "conv2d_1864", "inbound_nodes": [[["activation_1863", 0, 0, {}]]]}, {"class_name": "Conv2D", "config": {"name": "conv2d_1865", "trainable": false, "dtype": "float32", "filters": 384, "kernel_size": [3, 1], "strides": [1, 1], "padding": "same", "data_format": "channels_last", "dilation_rate": [1, 1], "groups": 1, "activation": "linear", "use_bias": false, "kernel_initializer": {"class_name": "GlorotUniform", "config": {"seed": null}}, "bias_initializer": {"class_name": "Zeros", "config": {}}, "kernel_regularizer": null, "bias_regularizer": null, "activity_regularizer": null, "kernel_constraint": null, "bias_constraint": null}, "name": "conv2d_1865", "inbound_nodes": [[["activation_1863", 0, 0, {}]]]}, {"class_name": "Conv2D", "config": {"name": "conv2d_1868", "trainable": false, "dtype": "float32", "filters": 384, "kernel_size": [1, 3], "strides": [1, 1], "padding": "same", "data_format": "channels_last", "dilation_rate": [1, 1], "groups": 1, "activation": "linear", "use_bias": false, "kernel_initializer": {"class_name": "GlorotUniform", "config": {"seed": null}}, "bias_initializer": {"class_name": "Zeros", "config": {}}, "kernel_regularizer": null, "bias_regularizer": null, "activity_regularizer": null, "kernel_constraint": null, "bias_constraint": null}, "name": "conv2d_1868", "inbound_nodes": [[["activation_1867", 0, 0, {}]]]}, {"class_name": "Conv2D", "config": {"name": "conv2d_1869", "trainable": false, "dtype": "float32", "filters": 384, "kernel_size": [3, 1], "strides": [1, 1], "padding": "same", "data_format": "channels_last", "dilation_rate": [1, 1], "groups": 1, "activation": "linear", "use_bias": false, "kernel_initializer": {"class_name": "GlorotUniform", "config": {"seed": null}}, "bias_initializer": {"class_name": "Zeros", "config": {}}, "kernel_regularizer": null, "bias_regularizer": null, "activity_regularizer": null, "kernel_constraint": null, "bias_constraint": null}, "name": "conv2d_1869", "inbound_nodes": [[["activation_1867", 0, 0, {}]]]}, {"class_name": "AveragePooling2D", "config": {"name": "average_pooling2d_178", "trainable": false, "dtype": "float32", "pool_size": [3, 3], "padding": "same", "strides": [1, 1], "data_format": "channels_last"}, "name": "average_pooling2d_178", "inbound_nodes": [[["mixed8", 0, 0, {}]]]}, {"class_name": "Conv2D", "config": {"name": "conv2d_1862", "trainable": false, "dtype": "float32", "filters": 320, "kernel_size": [1, 1], "strides": [1, 1], "padding": "same", "data_format": "channels_last", "dilation_rate": [1, 1], "groups": 1, "activation": "linear", "use_bias": false, "kernel_initializer": {"class_name": "GlorotUniform", "config": {"seed": null}}, "bias_initializer": {"class_name": "Zeros", "config": {}}, "kernel_regularizer": null, "bias_regularizer": null, "activity_regularizer": null, "kernel_constraint": null, "bias_constraint": null}, "name": "conv2d_1862", "inbound_nodes": [[["mixed8", 0, 0, {}]]]}, {"class_name": "BatchNormalization", "config": {"name": "batch_normalization_1883", "trainable": false, "dtype": "float32", "axis": [3], "momentum": 0.99, "epsilon": 0.001, "center": true, "scale": false, "beta_initializer": {"class_name": "Zeros", "config": {}}, "gamma_initializer": {"class_name": "Ones", "config": {}}, "moving_mean_initializer": {"class_name": "Zeros", "config": {}}, "moving_variance_initializer": {"class_name": "Ones", "config": {}}, "beta_regularizer": null, "gamma_regularizer": null, "beta_constraint": null, "gamma_constraint": null}, "name": "batch_normalization_1883", "inbound_nodes": [[["conv2d_1864", 0, 0, {}]]]}, {"class_name": "BatchNormalization", "config": {"name": "batch_normalization_1884", "trainable": false, "dtype": "float32", "axis": [3], "momentum": 0.99, "epsilon": 0.001, "center": true, "scale": false, "beta_initializer": {"class_name": "Zeros", "config": {}}, "gamma_initializer": {"class_name": "Ones", "config": {}}, "moving_mean_initializer": {"class_name": "Zeros", "config": {}}, "moving_variance_initializer": {"class_name": "Ones", "config": {}}, "beta_regularizer": null, "gamma_regularizer": null, "beta_constraint": null, "gamma_constraint": null}, "name": "batch_normalization_1884", "inbound_nodes": [[["conv2d_1865", 0, 0, {}]]]}, {"class_name": "BatchNormalization", "config": {"name": "batch_normalization_1887", "trainable": false, "dtype": "float32", "axis": [3], "momentum": 0.99, "epsilon": 0.001, "center": true, "scale": false, "beta_initializer": {"class_name": "Zeros", "config": {}}, "gamma_initializer": {"class_name": "Ones", "config": {}}, "moving_mean_initializer": {"class_name": "Zeros", "config": {}}, "moving_variance_initializer": {"class_name": "Ones", "config": {}}, "beta_regularizer": null, "gamma_regularizer": null, "beta_constraint": null, "gamma_constraint": null}, "name": "batch_normalization_1887", "inbound_nodes": [[["conv2d_1868", 0, 0, {}]]]}, {"class_name": "BatchNormalization", "config": {"name": "batch_normalization_1888", "trainable": false, "dtype": "float32", "axis": [3], "momentum": 0.99, "epsilon": 0.001, "center": true, "scale": false, "beta_initializer": {"class_name": "Zeros", "config": {}}, "gamma_initializer": {"class_name": "Ones", "config": {}}, "moving_mean_initializer": {"class_name": "Zeros", "config": {}}, "moving_variance_initializer": {"class_name": "Ones", "config": {}}, "beta_regularizer": null, "gamma_regularizer": null, "beta_constraint": null, "gamma_constraint": null}, "name": "batch_normalization_1888", "inbound_nodes": [[["conv2d_1869", 0, 0, {}]]]}, {"class_name": "Conv2D", "config": {"name": "conv2d_1870", "trainable": false, "dtype": "float32", "filters": 192, "kernel_size": [1, 1], "strides": [1, 1], "padding": "same", "data_format": "channels_last", "dilation_rate": [1, 1], "groups": 1, "activation": "linear", "use_bias": false, "kernel_initializer": {"class_name": "GlorotUniform", "config": {"seed": null}}, "bias_initializer": {"class_name": "Zeros", "config": {}}, "kernel_regularizer": null, "bias_regularizer": null, "activity_regularizer": null, "kernel_constraint": null, "bias_constraint": null}, "name": "conv2d_1870", "inbound_nodes": [[["average_pooling2d_178", 0, 0, {}]]]}, {"class_name": "BatchNormalization", "config": {"name": "batch_normalization_1881", "trainable": false, "dtype": "float32", "axis": [3], "momentum": 0.99, "epsilon": 0.001, "center": true, "scale": false, "beta_initializer": {"class_name": "Zeros", "config": {}}, "gamma_initializer": {"class_name": "Ones", "config": {}}, "moving_mean_initializer": {"class_name": "Zeros", "config": {}}, "moving_variance_initializer": {"class_name": "Ones", "config": {}}, "beta_regularizer": null, "gamma_regularizer": null, "beta_constraint": null, "gamma_constraint": null}, "name": "batch_normalization_1881", "inbound_nodes": [[["conv2d_1862", 0, 0, {}]]]}, {"class_name": "Activation", "config": {"name": "activation_1864", "trainable": false, "dtype": "float32", "activation": "relu"}, "name": "activation_1864", "inbound_nodes": [[["batch_normalization_1883", 0, 0, {}]]]}, {"class_name": "Activation", "config": {"name": "activation_1865", "trainable": false, "dtype": "float32", "activation": "relu"}, "name": "activation_1865", "inbound_nodes": [[["batch_normalization_1884", 0, 0, {}]]]}, {"class_name": "Activation", "config": {"name": "activation_1868", "trainable": false, "dtype": "float32", "activation": "relu"}, "name": "activation_1868", "inbound_nodes": [[["batch_normalization_1887", 0, 0, {}]]]}, {"class_name": "Activation", "config": {"name": "activation_1869", "trainable": false, "dtype": "float32", "activation": "relu"}, "name": "activation_1869", "inbound_nodes": [[["batch_normalization_1888", 0, 0, {}]]]}, {"class_name": "BatchNormalization", "config": {"name": "batch_normalization_1889", "trainable": false, "dtype": "float32", "axis": [3], "momentum": 0.99, "epsilon": 0.001, "center": true, "scale": false, "beta_initializer": {"class_name": "Zeros", "config": {}}, "gamma_initializer": {"class_name": "Ones", "config": {}}, "moving_mean_initializer": {"class_name": "Zeros", "config": {}}, "moving_variance_initializer": {"class_name": "Ones", "config": {}}, "beta_regularizer": null, "gamma_regularizer": null, "beta_constraint": null, "gamma_constraint": null}, "name": "batch_normalization_1889", "inbound_nodes": [[["conv2d_1870", 0, 0, {}]]]}, {"class_name": "Activation", "config": {"name": "activation_1862", "trainable": false, "dtype": "float32", "activation": "relu"}, "name": "activation_1862", "inbound_nodes": [[["batch_normalization_1881", 0, 0, {}]]]}, {"class_name": "Concatenate", "config": {"name": "mixed9_0", "trainable": false, "dtype": "float32", "axis": 3}, "name": "mixed9_0", "inbound_nodes": [[["activation_1864", 0, 0, {}], ["activation_1865", 0, 0, {}]]]}, {"class_name": "Concatenate", "config": {"name": "concatenate_38", "trainable": false, "dtype": "float32", "axis": 3}, "name": "concatenate_38", "inbound_nodes": [[["activation_1868", 0, 0, {}], ["activation_1869", 0, 0, {}]]]}, {"class_name": "Activation", "config": {"name": "activation_1870", "trainable": false, "dtype": "float32", "activation": "relu"}, "name": "activation_1870", "inbound_nodes": [[["batch_normalization_1889", 0, 0, {}]]]}, {"class_name": "Concatenate", "config": {"name": "mixed9", "trainable": false, "dtype": "float32", "axis": 3}, "name": "mixed9", "inbound_nodes": [[["activation_1862", 0, 0, {}], ["mixed9_0", 0, 0, {}], ["concatenate_38", 0, 0, {}], ["activation_1870", 0, 0, {}]]]}, {"class_name": "Conv2D", "config": {"name": "conv2d_1875", "trainable": false, "dtype": "float32", "filters": 448, "kernel_size": [1, 1], "strides": [1, 1], "padding": "same", "data_format": "channels_last", "dilation_rate": [1, 1], "groups": 1, "activation": "linear", "use_bias": false, "kernel_initializer": {"class_name": "GlorotUniform", "config": {"seed": null}}, "bias_initializer": {"class_name": "Zeros", "config": {}}, "kernel_regularizer": null, "bias_regularizer": null, "activity_regularizer": null, "kernel_constraint": null, "bias_constraint": null}, "name": "conv2d_1875", "inbound_nodes": [[["mixed9", 0, 0, {}]]]}, {"class_name": "BatchNormalization", "config": {"name": "batch_normalization_1894", "trainable": false, "dtype": "float32", "axis": [3], "momentum": 0.99, "epsilon": 0.001, "center": true, "scale": false, "beta_initializer": {"class_name": "Zeros", "config": {}}, "gamma_initializer": {"class_name": "Ones", "config": {}}, "moving_mean_initializer": {"class_name": "Zeros", "config": {}}, "moving_variance_initializer": {"class_name": "Ones", "config": {}}, "beta_regularizer": null, "gamma_regularizer": null, "beta_constraint": null, "gamma_constraint": null}, "name": "batch_normalization_1894", "inbound_nodes": [[["conv2d_1875", 0, 0, {}]]]}, {"class_name": "Activation", "config": {"name": "activation_1875", "trainable": false, "dtype": "float32", "activation": "relu"}, "name": "activation_1875", "inbound_nodes": [[["batch_normalization_1894", 0, 0, {}]]]}, {"class_name": "Conv2D", "config": {"name": "conv2d_1872", "trainable": false, "dtype": "float32", "filters": 384, "kernel_size": [1, 1], "strides": [1, 1], "padding": "same", "data_format": "channels_last", "dilation_rate": [1, 1], "groups": 1, "activation": "linear", "use_bias": false, "kernel_initializer": {"class_name": "GlorotUniform", "config": {"seed": null}}, "bias_initializer": {"class_name": "Zeros", "config": {}}, "kernel_regularizer": null, "bias_regularizer": null, "activity_regularizer": null, "kernel_constraint": null, "bias_constraint": null}, "name": "conv2d_1872", "inbound_nodes": [[["mixed9", 0, 0, {}]]]}, {"class_name": "Conv2D", "config": {"name": "conv2d_1876", "trainable": false, "dtype": "float32", "filters": 384, "kernel_size": [3, 3], "strides": [1, 1], "padding": "same", "data_format": "channels_last", "dilation_rate": [1, 1], "groups": 1, "activation": "linear", "use_bias": false, "kernel_initializer": {"class_name": "GlorotUniform", "config": {"seed": null}}, "bias_initializer": {"class_name": "Zeros", "config": {}}, "kernel_regularizer": null, "bias_regularizer": null, "activity_regularizer": null, "kernel_constraint": null, "bias_constraint": null}, "name": "conv2d_1876", "inbound_nodes": [[["activation_1875", 0, 0, {}]]]}, {"class_name": "BatchNormalization", "config": {"name": "batch_normalization_1891", "trainable": false, "dtype": "float32", "axis": [3], "momentum": 0.99, "epsilon": 0.001, "center": true, "scale": false, "beta_initializer": {"class_name": "Zeros", "config": {}}, "gamma_initializer": {"class_name": "Ones", "config": {}}, "moving_mean_initializer": {"class_name": "Zeros", "config": {}}, "moving_variance_initializer": {"class_name": "Ones", "config": {}}, "beta_regularizer": null, "gamma_regularizer": null, "beta_constraint": null, "gamma_constraint": null}, "name": "batch_normalization_1891", "inbound_nodes": [[["conv2d_1872", 0, 0, {}]]]}, {"class_name": "BatchNormalization", "config": {"name": "batch_normalization_1895", "trainable": false, "dtype": "float32", "axis": [3], "momentum": 0.99, "epsilon": 0.001, "center": true, "scale": false, "beta_initializer": {"class_name": "Zeros", "config": {}}, "gamma_initializer": {"class_name": "Ones", "config": {}}, "moving_mean_initializer": {"class_name": "Zeros", "config": {}}, "moving_variance_initializer": {"class_name": "Ones", "config": {}}, "beta_regularizer": null, "gamma_regularizer": null, "beta_constraint": null, "gamma_constraint": null}, "name": "batch_normalization_1895", "inbound_nodes": [[["conv2d_1876", 0, 0, {}]]]}, {"class_name": "Activation", "config": {"name": "activation_1872", "trainable": false, "dtype": "float32", "activation": "relu"}, "name": "activation_1872", "inbound_nodes": [[["batch_normalization_1891", 0, 0, {}]]]}, {"class_name": "Activation", "config": {"name": "activation_1876", "trainable": false, "dtype": "float32", "activation": "relu"}, "name": "activation_1876", "inbound_nodes": [[["batch_normalization_1895", 0, 0, {}]]]}, {"class_name": "Conv2D", "config": {"name": "conv2d_1873", "trainable": false, "dtype": "float32", "filters": 384, "kernel_size": [1, 3], "strides": [1, 1], "padding": "same", "data_format": "channels_last", "dilation_rate": [1, 1], "groups": 1, "activation": "linear", "use_bias": false, "kernel_initializer": {"class_name": "GlorotUniform", "config": {"seed": null}}, "bias_initializer": {"class_name": "Zeros", "config": {}}, "kernel_regularizer": null, "bias_regularizer": null, "activity_regularizer": null, "kernel_constraint": null, "bias_constraint": null}, "name": "conv2d_1873", "inbound_nodes": [[["activation_1872", 0, 0, {}]]]}, {"class_name": "Conv2D", "config": {"name": "conv2d_1874", "trainable": false, "dtype": "float32", "filters": 384, "kernel_size": [3, 1], "strides": [1, 1], "padding": "same", "data_format": "channels_last", "dilation_rate": [1, 1], "groups": 1, "activation": "linear", "use_bias": false, "kernel_initializer": {"class_name": "GlorotUniform", "config": {"seed": null}}, "bias_initializer": {"class_name": "Zeros", "config": {}}, "kernel_regularizer": null, "bias_regularizer": null, "activity_regularizer": null, "kernel_constraint": null, "bias_constraint": null}, "name": "conv2d_1874", "inbound_nodes": [[["activation_1872", 0, 0, {}]]]}, {"class_name": "Conv2D", "config": {"name": "conv2d_1877", "trainable": false, "dtype": "float32", "filters": 384, "kernel_size": [1, 3], "strides": [1, 1], "padding": "same", "data_format": "channels_last", "dilation_rate": [1, 1], "groups": 1, "activation": "linear", "use_bias": false, "kernel_initializer": {"class_name": "GlorotUniform", "config": {"seed": null}}, "bias_initializer": {"class_name": "Zeros", "config": {}}, "kernel_regularizer": null, "bias_regularizer": null, "activity_regularizer": null, "kernel_constraint": null, "bias_constraint": null}, "name": "conv2d_1877", "inbound_nodes": [[["activation_1876", 0, 0, {}]]]}, {"class_name": "Conv2D", "config": {"name": "conv2d_1878", "trainable": false, "dtype": "float32", "filters": 384, "kernel_size": [3, 1], "strides": [1, 1], "padding": "same", "data_format": "channels_last", "dilation_rate": [1, 1], "groups": 1, "activation": "linear", "use_bias": false, "kernel_initializer": {"class_name": "GlorotUniform", "config": {"seed": null}}, "bias_initializer": {"class_name": "Zeros", "config": {}}, "kernel_regularizer": null, "bias_regularizer": null, "activity_regularizer": null, "kernel_constraint": null, "bias_constraint": null}, "name": "conv2d_1878", "inbound_nodes": [[["activation_1876", 0, 0, {}]]]}, {"class_name": "AveragePooling2D", "config": {"name": "average_pooling2d_179", "trainable": false, "dtype": "float32", "pool_size": [3, 3], "padding": "same", "strides": [1, 1], "data_format": "channels_last"}, "name": "average_pooling2d_179", "inbound_nodes": [[["mixed9", 0, 0, {}]]]}, {"class_name": "Conv2D", "config": {"name": "conv2d_1871", "trainable": false, "dtype": "float32", "filters": 320, "kernel_size": [1, 1], "strides": [1, 1], "padding": "same", "data_format": "channels_last", "dilation_rate": [1, 1], "groups": 1, "activation": "linear", "use_bias": false, "kernel_initializer": {"class_name": "GlorotUniform", "config": {"seed": null}}, "bias_initializer": {"class_name": "Zeros", "config": {}}, "kernel_regularizer": null, "bias_regularizer": null, "activity_regularizer": null, "kernel_constraint": null, "bias_constraint": null}, "name": "conv2d_1871", "inbound_nodes": [[["mixed9", 0, 0, {}]]]}, {"class_name": "BatchNormalization", "config": {"name": "batch_normalization_1892", "trainable": false, "dtype": "float32", "axis": [3], "momentum": 0.99, "epsilon": 0.001, "center": true, "scale": false, "beta_initializer": {"class_name": "Zeros", "config": {}}, "gamma_initializer": {"class_name": "Ones", "config": {}}, "moving_mean_initializer": {"class_name": "Zeros", "config": {}}, "moving_variance_initializer": {"class_name": "Ones", "config": {}}, "beta_regularizer": null, "gamma_regularizer": null, "beta_constraint": null, "gamma_constraint": null}, "name": "batch_normalization_1892", "inbound_nodes": [[["conv2d_1873", 0, 0, {}]]]}, {"class_name": "BatchNormalization", "config": {"name": "batch_normalization_1893", "trainable": false, "dtype": "float32", "axis": [3], "momentum": 0.99, "epsilon": 0.001, "center": true, "scale": false, "beta_initializer": {"class_name": "Zeros", "config": {}}, "gamma_initializer": {"class_name": "Ones", "config": {}}, "moving_mean_initializer": {"class_name": "Zeros", "config": {}}, "moving_variance_initializer": {"class_name": "Ones", "config": {}}, "beta_regularizer": null, "gamma_regularizer": null, "beta_constraint": null, "gamma_constraint": null}, "name": "batch_normalization_1893", "inbound_nodes": [[["conv2d_1874", 0, 0, {}]]]}, {"class_name": "BatchNormalization", "config": {"name": "batch_normalization_1896", "trainable": false, "dtype": "float32", "axis": [3], "momentum": 0.99, "epsilon": 0.001, "center": true, "scale": false, "beta_initializer": {"class_name": "Zeros", "config": {}}, "gamma_initializer": {"class_name": "Ones", "config": {}}, "moving_mean_initializer": {"class_name": "Zeros", "config": {}}, "moving_variance_initializer": {"class_name": "Ones", "config": {}}, "beta_regularizer": null, "gamma_regularizer": null, "beta_constraint": null, "gamma_constraint": null}, "name": "batch_normalization_1896", "inbound_nodes": [[["conv2d_1877", 0, 0, {}]]]}, {"class_name": "BatchNormalization", "config": {"name": "batch_normalization_1897", "trainable": false, "dtype": "float32", "axis": [3], "momentum": 0.99, "epsilon": 0.001, "center": true, "scale": false, "beta_initializer": {"class_name": "Zeros", "config": {}}, "gamma_initializer": {"class_name": "Ones", "config": {}}, "moving_mean_initializer": {"class_name": "Zeros", "config": {}}, "moving_variance_initializer": {"class_name": "Ones", "config": {}}, "beta_regularizer": null, "gamma_regularizer": null, "beta_constraint": null, "gamma_constraint": null}, "name": "batch_normalization_1897", "inbound_nodes": [[["conv2d_1878", 0, 0, {}]]]}, {"class_name": "Conv2D", "config": {"name": "conv2d_1879", "trainable": false, "dtype": "float32", "filters": 192, "kernel_size": [1, 1], "strides": [1, 1], "padding": "same", "data_format": "channels_last", "dilation_rate": [1, 1], "groups": 1, "activation": "linear", "use_bias": false, "kernel_initializer": {"class_name": "GlorotUniform", "config": {"seed": null}}, "bias_initializer": {"class_name": "Zeros", "config": {}}, "kernel_regularizer": null, "bias_regularizer": null, "activity_regularizer": null, "kernel_constraint": null, "bias_constraint": null}, "name": "conv2d_1879", "inbound_nodes": [[["average_pooling2d_179", 0, 0, {}]]]}, {"class_name": "BatchNormalization", "config": {"name": "batch_normalization_1890", "trainable": false, "dtype": "float32", "axis": [3], "momentum": 0.99, "epsilon": 0.001, "center": true, "scale": false, "beta_initializer": {"class_name": "Zeros", "config": {}}, "gamma_initializer": {"class_name": "Ones", "config": {}}, "moving_mean_initializer": {"class_name": "Zeros", "config": {}}, "moving_variance_initializer": {"class_name": "Ones", "config": {}}, "beta_regularizer": null, "gamma_regularizer": null, "beta_constraint": null, "gamma_constraint": null}, "name": "batch_normalization_1890", "inbound_nodes": [[["conv2d_1871", 0, 0, {}]]]}, {"class_name": "Activation", "config": {"name": "activation_1873", "trainable": false, "dtype": "float32", "activation": "relu"}, "name": "activation_1873", "inbound_nodes": [[["batch_normalization_1892", 0, 0, {}]]]}, {"class_name": "Activation", "config": {"name": "activation_1874", "trainable": false, "dtype": "float32", "activation": "relu"}, "name": "activation_1874", "inbound_nodes": [[["batch_normalization_1893", 0, 0, {}]]]}, {"class_name": "Activation", "config": {"name": "activation_1877", "trainable": false, "dtype": "float32", "activation": "relu"}, "name": "activation_1877", "inbound_nodes": [[["batch_normalization_1896", 0, 0, {}]]]}, {"class_name": "Activation", "config": {"name": "activation_1878", "trainable": false, "dtype": "float32", "activation": "relu"}, "name": "activation_1878", "inbound_nodes": [[["batch_normalization_1897", 0, 0, {}]]]}, {"class_name": "BatchNormalization", "config": {"name": "batch_normalization_1898", "trainable": false, "dtype": "float32", "axis": [3], "momentum": 0.99, "epsilon": 0.001, "center": true, "scale": false, "beta_initializer": {"class_name": "Zeros", "config": {}}, "gamma_initializer": {"class_name": "Ones", "config": {}}, "moving_mean_initializer": {"class_name": "Zeros", "config": {}}, "moving_variance_initializer": {"class_name": "Ones", "config": {}}, "beta_regularizer": null, "gamma_regularizer": null, "beta_constraint": null, "gamma_constraint": null}, "name": "batch_normalization_1898", "inbound_nodes": [[["conv2d_1879", 0, 0, {}]]]}, {"class_name": "Activation", "config": {"name": "activation_1871", "trainable": false, "dtype": "float32", "activation": "relu"}, "name": "activation_1871", "inbound_nodes": [[["batch_normalization_1890", 0, 0, {}]]]}, {"class_name": "Concatenate", "config": {"name": "mixed9_1", "trainable": false, "dtype": "float32", "axis": 3}, "name": "mixed9_1", "inbound_nodes": [[["activation_1873", 0, 0, {}], ["activation_1874", 0, 0, {}]]]}, {"class_name": "Concatenate", "config": {"name": "concatenate_39", "trainable": false, "dtype": "float32", "axis": 3}, "name": "concatenate_39", "inbound_nodes": [[["activation_1877", 0, 0, {}], ["activation_1878", 0, 0, {}]]]}, {"class_name": "Activation", "config": {"name": "activation_1879", "trainable": false, "dtype": "float32", "activation": "relu"}, "name": "activation_1879", "inbound_nodes": [[["batch_normalization_1898", 0, 0, {}]]]}, {"class_name": "Concatenate", "config": {"name": "mixed10", "trainable": false, "dtype": "float32", "axis": 3}, "name": "mixed10", "inbound_nodes": [[["activation_1871", 0, 0, {}], ["mixed9_1", 0, 0, {}], ["concatenate_39", 0, 0, {}], ["activation_1879", 0, 0, {}]]]}, {"class_name": "Flatten", "config": {"name": "flatten_19", "trainable": true, "dtype": "float32", "data_format": "channels_last"}, "name": "flatten_19", "inbound_nodes": [[["mixed10", 0, 0, {}]]]}, {"class_name": "Dense", "config": {"name": "dense_57", "trainable": true, "dtype": "float32", "units": 256, "activation": "relu", "use_bias": true, "kernel_initializer": {"class_name": "GlorotUniform", "config": {"seed": null}}, "bias_initializer": {"class_name": "Zeros", "config": {}}, "kernel_regularizer": {"class_name": "L2", "config": {"l2": 9.999999747378752e-05}}, "bias_regularizer": null, "activity_regularizer": null, "kernel_constraint": null, "bias_constraint": null}, "name": "dense_57", "inbound_nodes": [[["flatten_19", 0, 0, {}]]]}, {"class_name": "Dropout", "config": {"name": "dropout_38", "trainable": true, "dtype": "float32", "rate": 0.25, "noise_shape": null, "seed": null}, "name": "dropout_38", "inbound_nodes": [[["dense_57", 0, 0, {}]]]}, {"class_name": "BatchNormalization", "config": {"name": "batch_normalization_1899", "trainable": true, "dtype": "float32", "axis": [1], "momentum": 0.99, "epsilon": 0.001, "center": true, "scale": true, "beta_initializer": {"class_name": "Zeros", "config": {}}, "gamma_initializer": {"class_name": "Ones", "config": {}}, "moving_mean_initializer": {"class_name": "Zeros", "config": {}}, "moving_variance_initializer": {"class_name": "Ones", "config": {}}, "beta_regularizer": null, "gamma_regularizer": null, "beta_constraint": null, "gamma_constraint": null}, "name": "batch_normalization_1899", "inbound_nodes": [[["dropout_38", 0, 0, {}]]]}, {"class_name": "Dense", "config": {"name": "dense_58", "trainable": true, "dtype": "float32", "units": 256, "activation": "relu", "use_bias": true, "kernel_initializer": {"class_name": "GlorotUniform", "config": {"seed": null}}, "bias_initializer": {"class_name": "Zeros", "config": {}}, "kernel_regularizer": {"class_name": "L2", "config": {"l2": 9.999999747378752e-05}}, "bias_regularizer": null, "activity_regularizer": null, "kernel_constraint": null, "bias_constraint": null}, "name": "dense_58", "inbound_nodes": [[["batch_normalization_1899", 0, 0, {}]]]}, {"class_name": "Dropout", "config": {"name": "dropout_39", "trainable": true, "dtype": "float32", "rate": 0.25, "noise_shape": null, "seed": null}, "name": "dropout_39", "inbound_nodes": [[["dense_58", 0, 0, {}]]]}, {"class_name": "Dense", "config": {"name": "dense_59", "trainable": true, "dtype": "float32", "units": 512, "activation": "linear", "use_bias": true, "kernel_initializer": {"class_name": "GlorotUniform", "config": {"seed": null}}, "bias_initializer": {"class_name": "Zeros", "config": {}}, "kernel_regularizer": null, "bias_regularizer": null, "activity_regularizer": null, "kernel_constraint": null, "bias_constraint": null}, "name": "dense_59", "inbound_nodes": [[["dropout_39", 0, 0, {}]]]}, {"class_name": "Lambda", "config": {"name": "norm_layer", "trainable": true, "dtype": "float32", "function": ["4wEAAAAAAAAAAQAAAAQAAABTAAAAcxAAAAB0AGoBagJ8AGQBZAKNAlMAKQNO6QEAAAApAdoEYXhp\ncykD2gJ0ZtoEbWF0aNoMbDJfbm9ybWFsaXplKQHaAXipAHIHAAAAeh88aXB5dGhvbi1pbnB1dC0z\nNy03NjY0OTAxYzJiMmY+2gg8bGFtYmRhPi4AAADzAAAAAA==\n", null, null], "function_type": "lambda", "module": "__main__", "output_shape": null, "output_shape_type": "raw", "output_shape_module": null, "arguments": {}}, "name": "norm_layer", "inbound_nodes": [[["dense_59", 0, 0, {}]]]}], "input_layers": [["input_20", 0, 0]], "output_layers": [["norm_layer", 0, 0]]}}}, "weightsManifest": [{"paths": ["group1-shard1of34.bin", "group1-shard2of34.bin", "group1-shard3of34.bin", "group1-shard4of34.bin", "group1-shard5of34.bin", "group1-shard6of34.bin", "group1-shard7of34.bin", "group1-shard8of34.bin", "group1-shard9of34.bin", "group1-shard10of34.bin", "group1-shard11of34.bin", "group1-shard12of34.bin", "group1-shard13of34.bin", "group1-shard14of34.bin", "group1-shard15of34.bin", "group1-shard16of34.bin", "group1-shard17of34.bin", "group1-shard18of34.bin", "group1-shard19of34.bin", "group1-shard20of34.bin", "group1-shard21of34.bin", "group1-shard22of34.bin", "group1-shard23of34.bin", "group1-shard24of34.bin", "group1-shard25of34.bin", "group1-shard26of34.bin", "group1-shard27of34.bin", "group1-shard28of34.bin", "group1-shard29of34.bin", "group1-shard30of34.bin", "group1-shard31of34.bin", "group1-shard32of34.bin", "group1-shard33of34.bin", "group1-shard34of34.bin"], "weights": [{"name": "batch_normalization_1805/beta", "shape": [32], "dtype": "float32"}, {"name": "batch_normalization_1805/moving_mean", "shape": [32], "dtype": "float32"}, {"name": "batch_normalization_1805/moving_variance", "shape": [32], "dtype": "float32"}, {"name": "batch_normalization_1806/beta", "shape": [32], "dtype": "float32"}, {"name": "batch_normalization_1806/moving_mean", "shape": [32], "dtype": "float32"}, {"name": "batch_normalization_1806/moving_variance", "shape": [32], "dtype": "float32"}, {"name": "batch_normalization_1807/beta", "shape": [64], "dtype": "float32"}, {"name": "batch_normalization_1807/moving_mean", "shape": [64], "dtype": "float32"}, {"name": "batch_normalization_1807/moving_variance", "shape": [64], "dtype": "float32"}, {"name": "batch_normalization_1808/beta", "shape": [80], "dtype": "float32"}, {"name": "batch_normalization_1808/moving_mean", "shape": [80], "dtype": "float32"}, {"name": "batch_normalization_1808/moving_variance", "shape": [80], "dtype": "float32"}, {"name": "batch_normalization_1809/beta", "shape": [192], "dtype": "float32"}, {"name": "batch_normalization_1809/moving_mean", "shape": [192], "dtype": "float32"}, {"name": "batch_normalization_1809/moving_variance", "shape": [192], "dtype": "float32"}, {"name": "batch_normalization_1810/beta", "shape": [64], "dtype": "float32"}, {"name": "batch_normalization_1810/moving_mean", "shape": [64], "dtype": "float32"}, {"name": "batch_normalization_1810/moving_variance", "shape": [64], "dtype": "float32"}, {"name": "batch_normalization_1811/beta", "shape": [48], "dtype": "float32"}, {"name": "batch_normalization_1811/moving_mean", "shape": [48], "dtype": "float32"}, {"name": "batch_normalization_1811/moving_variance", "shape": [48], "dtype": "float32"}, {"name": "batch_normalization_1812/beta", "shape": [64], "dtype": "float32"}, {"name": "batch_normalization_1812/moving_mean", "shape": [64], "dtype": "float32"}, {"name": "batch_normalization_1812/moving_variance", "shape": [64], "dtype": "float32"}, {"name": "batch_normalization_1813/beta", "shape": [64], "dtype": "float32"}, {"name": "batch_normalization_1813/moving_mean", "shape": [64], "dtype": "float32"}, {"name": "batch_normalization_1813/moving_variance", "shape": [64], "dtype": "float32"}, {"name": "batch_normalization_1814/beta", "shape": [96], "dtype": "float32"}, {"name": "batch_normalization_1814/moving_mean", "shape": [96], "dtype": "float32"}, {"name": "batch_normalization_1814/moving_variance", "shape": [96], "dtype": "float32"}, {"name": "batch_normalization_1815/beta", "shape": [96], "dtype": "float32"}, {"name": "batch_normalization_1815/moving_mean", "shape": [96], "dtype": "float32"}, {"name": "batch_normalization_1815/moving_variance", "shape": [96], "dtype": "float32"}, {"name": "batch_normalization_1816/beta", "shape": [32], "dtype": "float32"}, {"name": "batch_normalization_1816/moving_mean", "shape": [32], "dtype": "float32"}, {"name": "batch_normalization_1816/moving_variance", "shape": [32], "dtype": "float32"}, {"name": "batch_normalization_1817/beta", "shape": [64], "dtype": "float32"}, {"name": "batch_normalization_1817/moving_mean", "shape": [64], "dtype": "float32"}, {"name": "batch_normalization_1817/moving_variance", "shape": [64], "dtype": "float32"}, {"name": "batch_normalization_1818/beta", "shape": [48], "dtype": "float32"}, {"name": "batch_normalization_1818/moving_mean", "shape": [48], "dtype": "float32"}, {"name": "batch_normalization_1818/moving_variance", "shape": [48], "dtype": "float32"}, {"name": "batch_normalization_1819/beta", "shape": [64], "dtype": "float32"}, {"name": "batch_normalization_1819/moving_mean", "shape": [64], "dtype": "float32"}, {"name": "batch_normalization_1819/moving_variance", "shape": [64], "dtype": "float32"}, {"name": "batch_normalization_1820/beta", "shape": [64], "dtype": "float32"}, {"name": "batch_normalization_1820/moving_mean", "shape": [64], "dtype": "float32"}, {"name": "batch_normalization_1820/moving_variance", "shape": [64], "dtype": "float32"}, {"name": "batch_normalization_1821/beta", "shape": [96], "dtype": "float32"}, {"name": "batch_normalization_1821/moving_mean", "shape": [96], "dtype": "float32"}, {"name": "batch_normalization_1821/moving_variance", "shape": [96], "dtype": "float32"}, {"name": "batch_normalization_1822/beta", "shape": [96], "dtype": "float32"}, {"name": "batch_normalization_1822/moving_mean", "shape": [96], "dtype": "float32"}, {"name": "batch_normalization_1822/moving_variance", "shape": [96], "dtype": "float32"}, {"name": "batch_normalization_1823/beta", "shape": [64], "dtype": "float32"}, {"name": "batch_normalization_1823/moving_mean", "shape": [64], "dtype": "float32"}, {"name": "batch_normalization_1823/moving_variance", "shape": [64], "dtype": "float32"}, {"name": "batch_normalization_1824/beta", "shape": [64], "dtype": "float32"}, {"name": "batch_normalization_1824/moving_mean", "shape": [64], "dtype": "float32"}, {"name": "batch_normalization_1824/moving_variance", "shape": [64], "dtype": "float32"}, {"name": "batch_normalization_1825/beta", "shape": [48], "dtype": "float32"}, {"name": "batch_normalization_1825/moving_mean", "shape": [48], "dtype": "float32"}, {"name": "batch_normalization_1825/moving_variance", "shape": [48], "dtype": "float32"}, {"name": "batch_normalization_1826/beta", "shape": [64], "dtype": "float32"}, {"name": "batch_normalization_1826/moving_mean", "shape": [64], "dtype": "float32"}, {"name": "batch_normalization_1826/moving_variance", "shape": [64], "dtype": "float32"}, {"name": "batch_normalization_1827/beta", "shape": [64], "dtype": "float32"}, {"name": "batch_normalization_1827/moving_mean", "shape": [64], "dtype": "float32"}, {"name": "batch_normalization_1827/moving_variance", "shape": [64], "dtype": "float32"}, {"name": "batch_normalization_1828/beta", "shape": [96], "dtype": "float32"}, {"name": "batch_normalization_1828/moving_mean", "shape": [96], "dtype": "float32"}, {"name": "batch_normalization_1828/moving_variance", "shape": [96], "dtype": "float32"}, {"name": "batch_normalization_1829/beta", "shape": [96], "dtype": "float32"}, {"name": "batch_normalization_1829/moving_mean", "shape": [96], "dtype": "float32"}, {"name": "batch_normalization_1829/moving_variance", "shape": [96], "dtype": "float32"}, {"name": "batch_normalization_1830/beta", "shape": [64], "dtype": "float32"}, {"name": "batch_normalization_1830/moving_mean", "shape": [64], "dtype": "float32"}, {"name": "batch_normalization_1830/moving_variance", "shape": [64], "dtype": "float32"}, {"name": "batch_normalization_1831/beta", "shape": [384], "dtype": "float32"}, {"name": "batch_normalization_1831/moving_mean", "shape": [384], "dtype": "float32"}, {"name": "batch_normalization_1831/moving_variance", "shape": [384], "dtype": "float32"}, {"name": "batch_normalization_1832/beta", "shape": [64], "dtype": "float32"}, {"name": "batch_normalization_1832/moving_mean", "shape": [64], "dtype": "float32"}, {"name": "batch_normalization_1832/moving_variance", "shape": [64], "dtype": "float32"}, {"name": "batch_normalization_1833/beta", "shape": [96], "dtype": "float32"}, {"name": "batch_normalization_1833/moving_mean", "shape": [96], "dtype": "float32"}, {"name": "batch_normalization_1833/moving_variance", "shape": [96], "dtype": "float32"}, {"name": "batch_normalization_1834/beta", "shape": [96], "dtype": "float32"}, {"name": "batch_normalization_1834/moving_mean", "shape": [96], "dtype": "float32"}, {"name": "batch_normalization_1834/moving_variance", "shape": [96], "dtype": "float32"}, {"name": "batch_normalization_1835/beta", "shape": [192], "dtype": "float32"}, {"name": "batch_normalization_1835/moving_mean", "shape": [192], "dtype": "float32"}, {"name": "batch_normalization_1835/moving_variance", "shape": [192], "dtype": "float32"}, {"name": "batch_normalization_1836/beta", "shape": [128], "dtype": "float32"}, {"name": "batch_normalization_1836/moving_mean", "shape": [128], "dtype": "float32"}, {"name": "batch_normalization_1836/moving_variance", "shape": [128], "dtype": "float32"}, {"name": "batch_normalization_1837/beta", "shape": [128], "dtype": "float32"}, {"name": "batch_normalization_1837/moving_mean", "shape": [128], "dtype": "float32"}, {"name": "batch_normalization_1837/moving_variance", "shape": [128], "dtype": "float32"}, {"name": "batch_normalization_1838/beta", "shape": [192], "dtype": "float32"}, {"name": "batch_normalization_1838/moving_mean", "shape": [192], "dtype": "float32"}, {"name": "batch_normalization_1838/moving_variance", "shape": [192], "dtype": "float32"}, {"name": "batch_normalization_1839/beta", "shape": [128], "dtype": "float32"}, {"name": "batch_normalization_1839/moving_mean", "shape": [128], "dtype": "float32"}, {"name": "batch_normalization_1839/moving_variance", "shape": [128], "dtype": "float32"}, {"name": "batch_normalization_1840/beta", "shape": [128], "dtype": "float32"}, {"name": "batch_normalization_1840/moving_mean", "shape": [128], "dtype": "float32"}, {"name": "batch_normalization_1840/moving_variance", "shape": [128], "dtype": "float32"}, {"name": "batch_normalization_1841/beta", "shape": [128], "dtype": "float32"}, {"name": "batch_normalization_1841/moving_mean", "shape": [128], "dtype": "float32"}, {"name": "batch_normalization_1841/moving_variance", "shape": [128], "dtype": "float32"}, {"name": "batch_normalization_1842/beta", "shape": [128], "dtype": "float32"}, {"name": "batch_normalization_1842/moving_mean", "shape": [128], "dtype": "float32"}, {"name": "batch_normalization_1842/moving_variance", "shape": [128], "dtype": "float32"}, {"name": "batch_normalization_1843/beta", "shape": [192], "dtype": "float32"}, {"name": "batch_normalization_1843/moving_mean", "shape": [192], "dtype": "float32"}, {"name": "batch_normalization_1843/moving_variance", "shape": [192], "dtype": "float32"}, {"name": "batch_normalization_1844/beta", "shape": [192], "dtype": "float32"}, {"name": "batch_normalization_1844/moving_mean", "shape": [192], "dtype": "float32"}, {"name": "batch_normalization_1844/moving_variance", "shape": [192], "dtype": "float32"}, {"name": "batch_normalization_1845/beta", "shape": [192], "dtype": "float32"}, {"name": "batch_normalization_1845/moving_mean", "shape": [192], "dtype": "float32"}, {"name": "batch_normalization_1845/moving_variance", "shape": [192], "dtype": "float32"}, {"name": "batch_normalization_1846/beta", "shape": [160], "dtype": "float32"}, {"name": "batch_normalization_1846/moving_mean", "shape": [160], "dtype": "float32"}, {"name": "batch_normalization_1846/moving_variance", "shape": [160], "dtype": "float32"}, {"name": "batch_normalization_1847/beta", "shape": [160], "dtype": "float32"}, {"name": "batch_normalization_1847/moving_mean", "shape": [160], "dtype": "float32"}, {"name": "batch_normalization_1847/moving_variance", "shape": [160], "dtype": "float32"}, {"name": "batch_normalization_1848/beta", "shape": [192], "dtype": "float32"}, {"name": "batch_normalization_1848/moving_mean", "shape": [192], "dtype": "float32"}, {"name": "batch_normalization_1848/moving_variance", "shape": [192], "dtype": "float32"}, {"name": "batch_normalization_1849/beta", "shape": [160], "dtype": "float32"}, {"name": "batch_normalization_1849/moving_mean", "shape": [160], "dtype": "float32"}, {"name": "batch_normalization_1849/moving_variance", "shape": [160], "dtype": "float32"}, {"name": "batch_normalization_1850/beta", "shape": [160], "dtype": "float32"}, {"name": "batch_normalization_1850/moving_mean", "shape": [160], "dtype": "float32"}, {"name": "batch_normalization_1850/moving_variance", "shape": [160], "dtype": "float32"}, {"name": "batch_normalization_1851/beta", "shape": [160], "dtype": "float32"}, {"name": "batch_normalization_1851/moving_mean", "shape": [160], "dtype": "float32"}, {"name": "batch_normalization_1851/moving_variance", "shape": [160], "dtype": "float32"}, {"name": "batch_normalization_1852/beta", "shape": [160], "dtype": "float32"}, {"name": "batch_normalization_1852/moving_mean", "shape": [160], "dtype": "float32"}, {"name": "batch_normalization_1852/moving_variance", "shape": [160], "dtype": "float32"}, {"name": "batch_normalization_1853/beta", "shape": [192], "dtype": "float32"}, {"name": "batch_normalization_1853/moving_mean", "shape": [192], "dtype": "float32"}, {"name": "batch_normalization_1853/moving_variance", "shape": [192], "dtype": "float32"}, {"name": "batch_normalization_1854/beta", "shape": [192], "dtype": "float32"}, {"name": "batch_normalization_1854/moving_mean", "shape": [192], "dtype": "float32"}, {"name": "batch_normalization_1854/moving_variance", "shape": [192], "dtype": "float32"}, {"name": "batch_normalization_1855/beta", "shape": [192], "dtype": "float32"}, {"name": "batch_normalization_1855/moving_mean", "shape": [192], "dtype": "float32"}, {"name": "batch_normalization_1855/moving_variance", "shape": [192], "dtype": "float32"}, {"name": "batch_normalization_1856/beta", "shape": [160], "dtype": "float32"}, {"name": "batch_normalization_1856/moving_mean", "shape": [160], "dtype": "float32"}, {"name": "batch_normalization_1856/moving_variance", "shape": [160], "dtype": "float32"}, {"name": "batch_normalization_1857/beta", "shape": [160], "dtype": "float32"}, {"name": "batch_normalization_1857/moving_mean", "shape": [160], "dtype": "float32"}, {"name": "batch_normalization_1857/moving_variance", "shape": [160], "dtype": "float32"}, {"name": "batch_normalization_1858/beta", "shape": [192], "dtype": "float32"}, {"name": "batch_normalization_1858/moving_mean", "shape": [192], "dtype": "float32"}, {"name": "batch_normalization_1858/moving_variance", "shape": [192], "dtype": "float32"}, {"name": "batch_normalization_1859/beta", "shape": [160], "dtype": "float32"}, {"name": "batch_normalization_1859/moving_mean", "shape": [160], "dtype": "float32"}, {"name": "batch_normalization_1859/moving_variance", "shape": [160], "dtype": "float32"}, {"name": "batch_normalization_1860/beta", "shape": [160], "dtype": "float32"}, {"name": "batch_normalization_1860/moving_mean", "shape": [160], "dtype": "float32"}, {"name": "batch_normalization_1860/moving_variance", "shape": [160], "dtype": "float32"}, {"name": "batch_normalization_1861/beta", "shape": [160], "dtype": "float32"}, {"name": "batch_normalization_1861/moving_mean", "shape": [160], "dtype": "float32"}, {"name": "batch_normalization_1861/moving_variance", "shape": [160], "dtype": "float32"}, {"name": "batch_normalization_1862/beta", "shape": [160], "dtype": "float32"}, {"name": "batch_normalization_1862/moving_mean", "shape": [160], "dtype": "float32"}, {"name": "batch_normalization_1862/moving_variance", "shape": [160], "dtype": "float32"}, {"name": "batch_normalization_1863/beta", "shape": [192], "dtype": "float32"}, {"name": "batch_normalization_1863/moving_mean", "shape": [192], "dtype": "float32"}, {"name": "batch_normalization_1863/moving_variance", "shape": [192], "dtype": "float32"}, {"name": "batch_normalization_1864/beta", "shape": [192], "dtype": "float32"}, {"name": "batch_normalization_1864/moving_mean", "shape": [192], "dtype": "float32"}, {"name": "batch_normalization_1864/moving_variance", "shape": [192], "dtype": "float32"}, {"name": "batch_normalization_1865/beta", "shape": [192], "dtype": "float32"}, {"name": "batch_normalization_1865/moving_mean", "shape": [192], "dtype": "float32"}, {"name": "batch_normalization_1865/moving_variance", "shape": [192], "dtype": "float32"}, {"name": "batch_normalization_1866/beta", "shape": [192], "dtype": "float32"}, {"name": "batch_normalization_1866/moving_mean", "shape": [192], "dtype": "float32"}, {"name": "batch_normalization_1866/moving_variance", "shape": [192], "dtype": "float32"}, {"name": "batch_normalization_1867/beta", "shape": [192], "dtype": "float32"}, {"name": "batch_normalization_1867/moving_mean", "shape": [192], "dtype": "float32"}, {"name": "batch_normalization_1867/moving_variance", "shape": [192], "dtype": "float32"}, {"name": "batch_normalization_1868/beta", "shape": [192], "dtype": "float32"}, {"name": "batch_normalization_1868/moving_mean", "shape": [192], "dtype": "float32"}, {"name": "batch_normalization_1868/moving_variance", "shape": [192], "dtype": "float32"}, {"name": "batch_normalization_1869/beta", "shape": [192], "dtype": "float32"}, {"name": "batch_normalization_1869/moving_mean", "shape": [192], "dtype": "float32"}, {"name": "batch_normalization_1869/moving_variance", "shape": [192], "dtype": "float32"}, {"name": "batch_normalization_1870/beta", "shape": [192], "dtype": "float32"}, {"name": "batch_normalization_1870/moving_mean", "shape": [192], "dtype": "float32"}, {"name": "batch_normalization_1870/moving_variance", "shape": [192], "dtype": "float32"}, {"name": "batch_normalization_1871/beta", "shape": [192], "dtype": "float32"}, {"name": "batch_normalization_1871/moving_mean", "shape": [192], "dtype": "float32"}, {"name": "batch_normalization_1871/moving_variance", "shape": [192], "dtype": "float32"}, {"name": "batch_normalization_1872/beta", "shape": [192], "dtype": "float32"}, {"name": "batch_normalization_1872/moving_mean", "shape": [192], "dtype": "float32"}, {"name": "batch_normalization_1872/moving_variance", "shape": [192], "dtype": "float32"}, {"name": "batch_normalization_1873/beta", "shape": [192], "dtype": "float32"}, {"name": "batch_normalization_1873/moving_mean", "shape": [192], "dtype": "float32"}, {"name": "batch_normalization_1873/moving_variance", "shape": [192], "dtype": "float32"}, {"name": "batch_normalization_1874/beta", "shape": [192], "dtype": "float32"}, {"name": "batch_normalization_1874/moving_mean", "shape": [192], "dtype": "float32"}, {"name": "batch_normalization_1874/moving_variance", "shape": [192], "dtype": "float32"}, {"name": "batch_normalization_1875/beta", "shape": [192], "dtype": "float32"}, {"name": "batch_normalization_1875/moving_mean", "shape": [192], "dtype": "float32"}, {"name": "batch_normalization_1875/moving_variance", "shape": [192], "dtype": "float32"}, {"name": "batch_normalization_1876/beta", "shape": [320], "dtype": "float32"}, {"name": "batch_normalization_1876/moving_mean", "shape": [320], "dtype": "float32"}, {"name": "batch_normalization_1876/moving_variance", "shape": [320], "dtype": "float32"}, {"name": "batch_normalization_1877/beta", "shape": [192], "dtype": "float32"}, {"name": "batch_normalization_1877/moving_mean", "shape": [192], "dtype": "float32"}, {"name": "batch_normalization_1877/moving_variance", "shape": [192], "dtype": "float32"}, {"name": "batch_normalization_1878/beta", "shape": [192], "dtype": "float32"}, {"name": "batch_normalization_1878/moving_mean", "shape": [192], "dtype": "float32"}, {"name": "batch_normalization_1878/moving_variance", "shape": [192], "dtype": "float32"}, {"name": "batch_normalization_1879/beta", "shape": [192], "dtype": "float32"}, {"name": "batch_normalization_1879/moving_mean", "shape": [192], "dtype": "float32"}, {"name": "batch_normalization_1879/moving_variance", "shape": [192], "dtype": "float32"}, {"name": "batch_normalization_1880/beta", "shape": [192], "dtype": "float32"}, {"name": "batch_normalization_1880/moving_mean", "shape": [192], "dtype": "float32"}, {"name": "batch_normalization_1880/moving_variance", "shape": [192], "dtype": "float32"}, {"name": "batch_normalization_1881/beta", "shape": [320], "dtype": "float32"}, {"name": "batch_normalization_1881/moving_mean", "shape": [320], "dtype": "float32"}, {"name": "batch_normalization_1881/moving_variance", "shape": [320], "dtype": "float32"}, {"name": "batch_normalization_1882/beta", "shape": [384], "dtype": "float32"}, {"name": "batch_normalization_1882/moving_mean", "shape": [384], "dtype": "float32"}, {"name": "batch_normalization_1882/moving_variance", "shape": [384], "dtype": "float32"}, {"name": "batch_normalization_1883/beta", "shape": [384], "dtype": "float32"}, {"name": "batch_normalization_1883/moving_mean", "shape": [384], "dtype": "float32"}, {"name": "batch_normalization_1883/moving_variance", "shape": [384], "dtype": "float32"}, {"name": "batch_normalization_1884/beta", "shape": [384], "dtype": "float32"}, {"name": "batch_normalization_1884/moving_mean", "shape": [384], "dtype": "float32"}, {"name": "batch_normalization_1884/moving_variance", "shape": [384], "dtype": "float32"}, {"name": "batch_normalization_1885/beta", "shape": [448], "dtype": "float32"}, {"name": "batch_normalization_1885/moving_mean", "shape": [448], "dtype": "float32"}, {"name": "batch_normalization_1885/moving_variance", "shape": [448], "dtype": "float32"}, {"name": "batch_normalization_1886/beta", "shape": [384], "dtype": "float32"}, {"name": "batch_normalization_1886/moving_mean", "shape": [384], "dtype": "float32"}, {"name": "batch_normalization_1886/moving_variance", "shape": [384], "dtype": "float32"}, {"name": "batch_normalization_1887/beta", "shape": [384], "dtype": "float32"}, {"name": "batch_normalization_1887/moving_mean", "shape": [384], "dtype": "float32"}, {"name": "batch_normalization_1887/moving_variance", "shape": [384], "dtype": "float32"}, {"name": "batch_normalization_1888/beta", "shape": [384], "dtype": "float32"}, {"name": "batch_normalization_1888/moving_mean", "shape": [384], "dtype": "float32"}, {"name": "batch_normalization_1888/moving_variance", "shape": [384], "dtype": "float32"}, {"name": "batch_normalization_1889/beta", "shape": [192], "dtype": "float32"}, {"name": "batch_normalization_1889/moving_mean", "shape": [192], "dtype": "float32"}, {"name": "batch_normalization_1889/moving_variance", "shape": [192], "dtype": "float32"}, {"name": "batch_normalization_1890/beta", "shape": [320], "dtype": "float32"}, {"name": "batch_normalization_1890/moving_mean", "shape": [320], "dtype": "float32"}, {"name": "batch_normalization_1890/moving_variance", "shape": [320], "dtype": "float32"}, {"name": "batch_normalization_1891/beta", "shape": [384], "dtype": "float32"}, {"name": "batch_normalization_1891/moving_mean", "shape": [384], "dtype": "float32"}, {"name": "batch_normalization_1891/moving_variance", "shape": [384], "dtype": "float32"}, {"name": "batch_normalization_1892/beta", "shape": [384], "dtype": "float32"}, {"name": "batch_normalization_1892/moving_mean", "shape": [384], "dtype": "float32"}, {"name": "batch_normalization_1892/moving_variance", "shape": [384], "dtype": "float32"}, {"name": "batch_normalization_1893/beta", "shape": [384], "dtype": "float32"}, {"name": "batch_normalization_1893/moving_mean", "shape": [384], "dtype": "float32"}, {"name": "batch_normalization_1893/moving_variance", "shape": [384], "dtype": "float32"}, {"name": "batch_normalization_1894/beta", "shape": [448], "dtype": "float32"}, {"name": "batch_normalization_1894/moving_mean", "shape": [448], "dtype": "float32"}, {"name": "batch_normalization_1894/moving_variance", "shape": [448], "dtype": "float32"}, {"name": "batch_normalization_1895/beta", "shape": [384], "dtype": "float32"}, {"name": "batch_normalization_1895/moving_mean", "shape": [384], "dtype": "float32"}, {"name": "batch_normalization_1895/moving_variance", "shape": [384], "dtype": "float32"}, {"name": "batch_normalization_1896/beta", "shape": [384], "dtype": "float32"}, {"name": "batch_normalization_1896/moving_mean", "shape": [384], "dtype": "float32"}, {"name": "batch_normalization_1896/moving_variance", "shape": [384], "dtype": "float32"}, {"name": "batch_normalization_1897/beta", "shape": [384], "dtype": "float32"}, {"name": "batch_normalization_1897/moving_mean", "shape": [384], "dtype": "float32"}, {"name": "batch_normalization_1897/moving_variance", "shape": [384], "dtype": "float32"}, {"name": "batch_normalization_1898/beta", "shape": [192], "dtype": "float32"}, {"name": "batch_normalization_1898/moving_mean", "shape": [192], "dtype": "float32"}, {"name": "batch_normalization_1898/moving_variance", "shape": [192], "dtype": "float32"}, {"name": "batch_normalization_1899/gamma", "shape": [256], "dtype": "float32"}, {"name": "batch_normalization_1899/beta", "shape": [256], "dtype": "float32"}, {"name": "batch_normalization_1899/moving_mean", "shape": [256], "dtype": "float32"}, {"name": "batch_normalization_1899/moving_variance", "shape": [256], "dtype": "float32"}, {"name": "conv2d_1786/kernel", "shape": [3, 3, 3, 32], "dtype": "float32"}, {"name": "conv2d_1787/kernel", "shape": [3, 3, 32, 32], "dtype": "float32"}, {"name": "conv2d_1788/kernel", "shape": [3, 3, 32, 64], "dtype": "float32"}, {"name": "conv2d_1789/kernel", "shape": [1, 1, 64, 80], "dtype": "float32"}, {"name": "conv2d_1790/kernel", "shape": [3, 3, 80, 192], "dtype": "float32"}, {"name": "conv2d_1791/kernel", "shape": [1, 1, 192, 64], "dtype": "float32"}, {"name": "conv2d_1792/kernel", "shape": [1, 1, 192, 48], "dtype": "float32"}, {"name": "conv2d_1793/kernel", "shape": [5, 5, 48, 64], "dtype": "float32"}, {"name": "conv2d_1794/kernel", "shape": [1, 1, 192, 64], "dtype": "float32"}, {"name": "conv2d_1795/kernel", "shape": [3, 3, 64, 96], "dtype": "float32"}, {"name": "conv2d_1796/kernel", "shape": [3, 3, 96, 96], "dtype": "float32"}, {"name": "conv2d_1797/kernel", "shape": [1, 1, 192, 32], "dtype": "float32"}, {"name": "conv2d_1798/kernel", "shape": [1, 1, 256, 64], "dtype": "float32"}, {"name": "conv2d_1799/kernel", "shape": [1, 1, 256, 48], "dtype": "float32"}, {"name": "conv2d_1800/kernel", "shape": [5, 5, 48, 64], "dtype": "float32"}, {"name": "conv2d_1801/kernel", "shape": [1, 1, 256, 64], "dtype": "float32"}, {"name": "conv2d_1802/kernel", "shape": [3, 3, 64, 96], "dtype": "float32"}, {"name": "conv2d_1803/kernel", "shape": [3, 3, 96, 96], "dtype": "float32"}, {"name": "conv2d_1804/kernel", "shape": [1, 1, 256, 64], "dtype": "float32"}, {"name": "conv2d_1805/kernel", "shape": [1, 1, 288, 64], "dtype": "float32"}, {"name": "conv2d_1806/kernel", "shape": [1, 1, 288, 48], "dtype": "float32"}, {"name": "conv2d_1807/kernel", "shape": [5, 5, 48, 64], "dtype": "float32"}, {"name": "conv2d_1808/kernel", "shape": [1, 1, 288, 64], "dtype": "float32"}, {"name": "conv2d_1809/kernel", "shape": [3, 3, 64, 96], "dtype": "float32"}, {"name": "conv2d_1810/kernel", "shape": [3, 3, 96, 96], "dtype": "float32"}, {"name": "conv2d_1811/kernel", "shape": [1, 1, 288, 64], "dtype": "float32"}, {"name": "conv2d_1812/kernel", "shape": [3, 3, 288, 384], "dtype": "float32"}, {"name": "conv2d_1813/kernel", "shape": [1, 1, 288, 64], "dtype": "float32"}, {"name": "conv2d_1814/kernel", "shape": [3, 3, 64, 96], "dtype": "float32"}, {"name": "conv2d_1815/kernel", "shape": [3, 3, 96, 96], "dtype": "float32"}, {"name": "conv2d_1816/kernel", "shape": [1, 1, 768, 192], "dtype": "float32"}, {"name": "conv2d_1817/kernel", "shape": [1, 1, 768, 128], "dtype": "float32"}, {"name": "conv2d_1818/kernel", "shape": [1, 7, 128, 128], "dtype": "float32"}, {"name": "conv2d_1819/kernel", "shape": [7, 1, 128, 192], "dtype": "float32"}, {"name": "conv2d_1820/kernel", "shape": [1, 1, 768, 128], "dtype": "float32"}, {"name": "conv2d_1821/kernel", "shape": [7, 1, 128, 128], "dtype": "float32"}, {"name": "conv2d_1822/kernel", "shape": [1, 7, 128, 128], "dtype": "float32"}, {"name": "conv2d_1823/kernel", "shape": [7, 1, 128, 128], "dtype": "float32"}, {"name": "conv2d_1824/kernel", "shape": [1, 7, 128, 192], "dtype": "float32"}, {"name": "conv2d_1825/kernel", "shape": [1, 1, 768, 192], "dtype": "float32"}, {"name": "conv2d_1826/kernel", "shape": [1, 1, 768, 192], "dtype": "float32"}, {"name": "conv2d_1827/kernel", "shape": [1, 1, 768, 160], "dtype": "float32"}, {"name": "conv2d_1828/kernel", "shape": [1, 7, 160, 160], "dtype": "float32"}, {"name": "conv2d_1829/kernel", "shape": [7, 1, 160, 192], "dtype": "float32"}, {"name": "conv2d_1830/kernel", "shape": [1, 1, 768, 160], "dtype": "float32"}, {"name": "conv2d_1831/kernel", "shape": [7, 1, 160, 160], "dtype": "float32"}, {"name": "conv2d_1832/kernel", "shape": [1, 7, 160, 160], "dtype": "float32"}, {"name": "conv2d_1833/kernel", "shape": [7, 1, 160, 160], "dtype": "float32"}, {"name": "conv2d_1834/kernel", "shape": [1, 7, 160, 192], "dtype": "float32"}, {"name": "conv2d_1835/kernel", "shape": [1, 1, 768, 192], "dtype": "float32"}, {"name": "conv2d_1836/kernel", "shape": [1, 1, 768, 192], "dtype": "float32"}, {"name": "conv2d_1837/kernel", "shape": [1, 1, 768, 160], "dtype": "float32"}, {"name": "conv2d_1838/kernel", "shape": [1, 7, 160, 160], "dtype": "float32"}, {"name": "conv2d_1839/kernel", "shape": [7, 1, 160, 192], "dtype": "float32"}, {"name": "conv2d_1840/kernel", "shape": [1, 1, 768, 160], "dtype": "float32"}, {"name": "conv2d_1841/kernel", "shape": [7, 1, 160, 160], "dtype": "float32"}, {"name": "conv2d_1842/kernel", "shape": [1, 7, 160, 160], "dtype": "float32"}, {"name": "conv2d_1843/kernel", "shape": [7, 1, 160, 160], "dtype": "float32"}, {"name": "conv2d_1844/kernel", "shape": [1, 7, 160, 192], "dtype": "float32"}, {"name": "conv2d_1845/kernel", "shape": [1, 1, 768, 192], "dtype": "float32"}, {"name": "conv2d_1846/kernel", "shape": [1, 1, 768, 192], "dtype": "float32"}, {"name": "conv2d_1847/kernel", "shape": [1, 1, 768, 192], "dtype": "float32"}, {"name": "conv2d_1848/kernel", "shape": [1, 7, 192, 192], "dtype": "float32"}, {"name": "conv2d_1849/kernel", "shape": [7, 1, 192, 192], "dtype": "float32"}, {"name": "conv2d_1850/kernel", "shape": [1, 1, 768, 192], "dtype": "float32"}, {"name": "conv2d_1851/kernel", "shape": [7, 1, 192, 192], "dtype": "float32"}, {"name": "conv2d_1852/kernel", "shape": [1, 7, 192, 192], "dtype": "float32"}, {"name": "conv2d_1853/kernel", "shape": [7, 1, 192, 192], "dtype": "float32"}, {"name": "conv2d_1854/kernel", "shape": [1, 7, 192, 192], "dtype": "float32"}, {"name": "conv2d_1855/kernel", "shape": [1, 1, 768, 192], "dtype": "float32"}, {"name": "conv2d_1856/kernel", "shape": [1, 1, 768, 192], "dtype": "float32"}, {"name": "conv2d_1857/kernel", "shape": [3, 3, 192, 320], "dtype": "float32"}, {"name": "conv2d_1858/kernel", "shape": [1, 1, 768, 192], "dtype": "float32"}, {"name": "conv2d_1859/kernel", "shape": [1, 7, 192, 192], "dtype": "float32"}, {"name": "conv2d_1860/kernel", "shape": [7, 1, 192, 192], "dtype": "float32"}, {"name": "conv2d_1861/kernel", "shape": [3, 3, 192, 192], "dtype": "float32"}, {"name": "conv2d_1862/kernel", "shape": [1, 1, 1280, 320], "dtype": "float32"}, {"name": "conv2d_1863/kernel", "shape": [1, 1, 1280, 384], "dtype": "float32"}, {"name": "conv2d_1864/kernel", "shape": [1, 3, 384, 384], "dtype": "float32"}, {"name": "conv2d_1865/kernel", "shape": [3, 1, 384, 384], "dtype": "float32"}, {"name": "conv2d_1866/kernel", "shape": [1, 1, 1280, 448], "dtype": "float32"}, {"name": "conv2d_1867/kernel", "shape": [3, 3, 448, 384], "dtype": "float32"}, {"name": "conv2d_1868/kernel", "shape": [1, 3, 384, 384], "dtype": "float32"}, {"name": "conv2d_1869/kernel", "shape": [3, 1, 384, 384], "dtype": "float32"}, {"name": "conv2d_1870/kernel", "shape": [1, 1, 1280, 192], "dtype": "float32"}, {"name": "conv2d_1871/kernel", "shape": [1, 1, 2048, 320], "dtype": "float32"}, {"name": "conv2d_1872/kernel", "shape": [1, 1, 2048, 384], "dtype": "float32"}, {"name": "conv2d_1873/kernel", "shape": [1, 3, 384, 384], "dtype": "float32"}, {"name": "conv2d_1874/kernel", "shape": [3, 1, 384, 384], "dtype": "float32"}, {"name": "conv2d_1875/kernel", "shape": [1, 1, 2048, 448], "dtype": "float32"}, {"name": "conv2d_1876/kernel", "shape": [3, 3, 448, 384], "dtype": "float32"}, {"name": "conv2d_1877/kernel", "shape": [1, 3, 384, 384], "dtype": "float32"}, {"name": "conv2d_1878/kernel", "shape": [3, 1, 384, 384], "dtype": "float32"}, {"name": "conv2d_1879/kernel", "shape": [1, 1, 2048, 192], "dtype": "float32"}, {"name": "dense_57/kernel", "shape": [51200, 256], "dtype": "float32"}, {"name": "dense_57/bias", "shape": [256], "dtype": "float32"}, {"name": "dense_58/kernel", "shape": [256, 256], "dtype": "float32"}, {"name": "dense_58/bias", "shape": [256], "dtype": "float32"}, {"name": "dense_59/kernel", "shape": [256, 512], "dtype": "float32"}, {"name": "dense_59/bias", "shape": [512], "dtype": "float32"}]}]}